checkpoints/cora/0.75/GCN_2l/seed/0/GCN_2l_best.ckpt (torch, 95851 bytes, 6 tensors)

conv1.weight f4 [1433, 16]
0	0xbc9fdbb1	-0.019513937
1	0xbd63f730	-0.05565566
2	0x3c8d22f1	0.017228575
3	0xbd3d46a9	-0.046209965
4	0xbc9b23d6	-0.018937986
5	0x3d4ae0b8	0.049530715
6	0x3dceabc8	0.100913584
7	0x3d0a514d	0.03376894
8	0xbb235f36	-0.0024928576
9	0xbd9313c1	-0.07181502
10	0xbd044e1b	-0.03230105
11	0x3d2d8143	0.0423596
12	0x3d857cf1	0.06517971
13	0x3d116962	0.03550089
14	0xb9f0b486	-0.00045910868
15	0xbc96a924	-0.0183912
16	0xbe218494	-0.15773231
17	0x3d07e7d4	0.033180073
18	0xbe06af5b	-0.1315283
19	0x3d9297b6	0.07157843
20	0x3df73fac	0.12072691
21	0x3c868851	0.016422423
22	0x3d0370ef	0.032090124
23	0x3d9c6d82	0.076380745
24	0x3d78a120	0.060700536
25	0x3dce5089	0.100739546
26	0x3dae5366	0.08512001
27	0xb983dfbf	-0.0002515297
28	0xbd99be8b	-0.07507046
29	0x3d1a8d34	0.037732318
30	0xbc88f0f0	-0.01671645
31	0xbe15a00e	-0.14611837
32	0x3e111154	0.14166766
33	0xbddf9ae2	-0.109182134
34	0x3d500df4	0.050794557
35	0xbe0d4949	-0.13797487
36	0xbddd1916	-0.107958004
37	0x3de2d8db	0.11076518
38	0x3cc8bed7	0.024505062
39	0xbd230cbb	-0.039807063
40	0x3cdfc433	0.027315235
41	0xbdbd4cf1	-0.09243191
42	0x3d0c5c5a	0.03426776
43	0x3dbd0d8d	0.092311
44	0x3e1bdd65	0.15221174
45	0x3db2f056	0.08737247
46	0x3da5c937	0.08095019
47	0x3e4678a5	0.1938196
48	0xbc1893de	-0.009312598
49	0x3c3f5abc	0.011679348
50	0xbd8db457	-0.06919163
51	0xbc0b3dfd	-0.008498666
52	0xbcc5df9d	-0.024154479
53	0x3c24733c	0.01003724
54	0x3aa95ef1	0.0012921972
55	0x3d90c90b	0.07069596
56	0x3d9dfd66	0.077143475
57	0x3dad4beb	0.08461746
58	0x3dfc02af	0.12305199
59	0x3d7e5078	0.06208846
60	0xbe04da25	-0.1297384
61	0x3e0b630e	0.13612005
62	0x3d72e6e1	0.059302215
63	0xbd1ab68e	-0.037771754
64	0xbe542717	-0.20718037
65	0x3e8ad1b4	0.27113116
66	0xbd8f880c	-0.07008371
67	0x3e3aca50	0.18241239
68	0x3de82bc6	0.11336474
69	0xbe2d15c9	-0.16902842
70	0xbd421ab2	-0.04738874
71	0x3dec2a67	0.11531525
72	0x3e9019e9	0.28144768
73	0x3d5a0878	0.053230733
74	0xbe10d28b	-0.14142816
75	0x3e2fe7cc	0.17178267
76	0xbdf5cde2	-0.1200216
77	0x3e63d831	0.22250439
78	0x3cb0d688	0.021586671
79	0xbe9db99a	-0.30805665
80	0x3ca75eaf	0.02043089
81	0x3d485b77	0.048915353
82	0xbd37a753	-0.044837307
83	0x3c6c9556	0.014439901
84	0xbd5c194a	-0.053735055
85	0xbd0f10b5	-0.034928042
86	0xbcd80e0e	-0.02637389
87	0x3ce9ed0f	0.028555421
88	0x3bc02a26	0.0058643995
89	0x3c557521	0.013028414
90	0x3cdaa603	0.026690489
91	0x3c3ac206	0.011398798
92	0xbdb316e2	-0.08744599
93	0x3d5fd3e3	0.05464543
94	0xbb695170	-0.003560152
95	0x3c46663a	0.012109334
96	0x3e1f6df8	0.15569293
97	0x3e56e40d	0.20985432
98	0xbdb540de	-0.08850263
99	0x3e3fc0be	0.18725869
100	0xbd89a051	-0.06720031
101	0xbe21773a	-0.15768138
102	0xbe1c7ba7	-0.15281545
103	0x3d487ff3	0.048950147
104	0xbd942bea	-0.072349384
105	0x3e0a4ac0	0.13505077
106	0x3dc0ca05	0.09413532
107	0xbd50e6cc	-0.051001355
108	0xbe768422	-0.24073842
109	0x3c1dffe8	0.009643532
110	0xbd173d13	-0.03692348
111	0x3e057338	0.13032234
112	0xbd8d7843	-0.06907704
113	0xbc630884	-0.013857011
114	0xbc0e1e90	-0.008674279
115	0x3ca43da7	0.02004893
116	0x3d79e510	0.061009467
117	0x3cf098fe	0.029369827
118	0x3d79bddf	0.06097209
119	0x3d1f9206	0.03895762
120	0xbc41aadb	-0.01182052
121	0xba4e21c7	-0.00078633096
122	0x3bfccafb	0.007714627
123	0xbc88ef26	-0.016715597
124	0x3ca37b9b	0.0199564
125	0xbc70505d	-0.014667598
126	0xbd2908ab	-0.041268032
127	0xbd72a3cb	-0.059238236
128	0xbcd8f8f1	-0.026485892
129	0xbbc233c8	-0.005926583
130	0xbe1cd7c2	-0.1531668
131	0x3d8b61c7	0.06805759
132	0x3e021d54	0.127065
133	0x3d7da753	0.06192715
134	0x3cb492bd	0.022042627
135	0x3d8c96f3	0.06864729
136	0xbd0408b4	-0.032234862
137	0x3e143406	0.1447297
138	0x3e0e1781	0.13876154
139	0xbd82f777	-0.063948564
140	0xbd5bf6fa	-0.053702332
141	0xbd424ccc	-0.04743652
142	0xbd1b3328	-0.037890583
143	0xbd0bac02	-0.034099586
144	0xbc8d9854	-0.01728455
145	0xbd2ca65f	-0.04215085
146	0xbc9cf739	-0.019160854
147	0x3bee194c	0.007266199
148	0x3d5842ac	0.05279796
149	0x3d155444	0.036457315
150	0x3c816a3d	0.015797729
151	0x3c20357c	0.009778377
152	0xbd13908f	-0.036026534
153	0x3c9cd340	0.0191437
154	0x3d0542e8	0.03253451
155	0xbd1944c5	-0.0374191
156	0x3d41ea98	0.047342867
157	0xbd65c025	-0.056091446
158	0xbcaac55c	-0.020846061
159	0x3c811f75	0.01576207
160	0xbd6a7f89	-0.057250533
161	0xbcbb5cc9	-0.022871392
162	0xbd824930	-0.06361616
163	0x3bbbc7e1	0.0057306145
164	0x3d21fca3	0.039547574
165	0x3ceae006	0.028671276
166	0x3d1965b1	0.037450496
167	0x3d2dbd29	0.042416725
168	0xbc491868	-0.012273885
169	0x3cc54d1a	0.024084616
170	0x3d378439	0.04480383
171	0xbc548792	-0.012971776
172	0xbc729713	-0.014806527
173	0x3a26ac64	0.00063580857
174	0xbcc3ab56	-0.02388541
175	0xbd124082	-0.03570605
176	0x3d97a4e9	0.07404501
177	0x3d013212	0.03154189
178	0xbb84bbfd	-0.0040507303
179	0x3cbac1be	0.022797462
180	0xbcf1c7cd	-0.029514218
181	0xbd2dbb44	-0.04241492
182	0xbd822e22	-0.063564554
183	0xbcbf6a53	-0.023366129
184	0xbcde974e	-0.027171757
185	0x3c658a3b	0.0140100075
186	0x3b151d79	0.0022753163
187	0xbcc67f93	-0.024230754
188	0xbcf66e63	-0.030081933
189	0xbc8c7683	-0.017146355
190	0x3be76b1b	0.0070623285
191	0x3d8edcdb	0.069757186
192	0xbd66c72b	-0.056342285
193	0x3d887975	0.06663791
194	0xbd719b90	-0.058986247
195	0x3d32b170	0.04362625
196	0x3c749937	0.014929107
197	0xbc9f200c	-0.01942446
198	0xbc031959	-0.008001649
199	0x3d826243	0.06366398
200	0x3d49c203	0.04925729
201	0x3d896f4d	0.06710682
202	0x3d87bad9	0.06627435
203	0x3c9562f5	0.018235663
204	0xbddfcaa8	-0.109273255
205	0x3d8986e1	0.06715179
206	0xbca23cb1	-0.01980433
207	0xbd75a60e	-0.059972815
208	0xbd4e64d0	-0.05038911
209	0xbd0b70ee	-0.034043245
210	0xbc66c386	-0.014084702
211	0xbc1acbec	-0.009448033
212	0x3d7bf6b8	0.061514586
213	0x3d58e818	0.052955717
214	0x3d654ad4	0.055979565
215	0x3c87cb5a	0.016576458
216	0x3c0a9ec3	0.008460703
217	0xbb2f45d9	-0.0026744513
218	0x3c0e43ce	0.008683158
219	0x3bc95599	0.0061442372
220	0x3d4b5cf0	0.04964918
221	0xbc0a8039	-0.008453422
222	0xbc400d12	-0.011721866
223	0xbd4b38a6	-0.04961457
224	0xbcf62df1	-0.030051203
225	0x3cb604f1	0.022219153
226	0xbcf030a3	-0.029320067
227	0x3d499de2	0.049222834
228	0x3d6d55bf	0.057943102
229	0xbc580a1b	-0.013186003
230	0xbcff81c8	-0.031189814
231	0x3ba1cd43	0.004937799
232	0xba99abd2	-0.001172418
233	0x3d5219c2	0.051294096
234	0xbc43eb75	-0.011957993
235	0xbd0ad486	-0.033894084
236	0xbc8cb420	-0.017175734
237	0xbd2f1e31	-0.042753402
238	0xbbdfa0b8	-0.006824579
239	0xbca808d3	-0.02051202
240	0xbbd5fa76	-0.0065301014
241	0xbb9249ee	-0.0044643795
242	0xbd1d022a	-0.038332142
243	0xbbf0d17e	-0.007349192
244	0xbc892a0e	-0.016743686
245	0xbad8ab82	-0.0016530605
246	0xbc82cec2	-0.01596773
247	0x3c36a732	0.011148261
248	0x3c922823	0.017841404
249	0x3cdeaecb	0.027182957
250	0x3d232264	0.03982772
251	0x3c3fe9a6	0.011713421
252	0xbd2e9cc5	-0.042629976
253	0x3ced9bab	0.029004892
254	0x3c4a7980	0.012358069
255	0x3c321173	0.010868418

conv1.bias f4 [16]
0	0x3e473e38	0.19457328
1	0x3e80d078	0.2515905
2	0x3dbf4234	0.09338799
3	0x3ec71de9	0.38890007
4	0x3eb1c821	0.34723
5	0x3e3cbd2b	0.18431537
6	0x3e49fcbe	0.1972532
7	0x3eb28364	0.34865868
8	0x3e5b7f9c	0.21435398
9	0x3ead4f8e	0.33849758
10	0x3eaea9c4	0.34113896
11	0x3e8256fc	0.2545699
12	0x3e82ab23	0.25521192
13	0x3e7675d4	0.24068385
14	0x3e36c674	0.17849141
15	0x3e8e5502	0.2779923

convs.0.weight f4 [16, 16]
0	0x3f0a5968	0.54042673
1	0x3f9651b2	1.1743681
2	0x3f2848b7	0.65735954
3	0x3f35af44	0.7097056
4	0xbf120665	-0.5704101
5	0xbf756d0b	-0.9586951
6	0xbea87669	-0.3290284
7	0x3d2df877	0.042473283
8	0x3dd2977f	0.10282802
9	0xbf3d7ebe	-0.7402152
10	0xbedafd71	-0.42771485
11	0x3ee38ba2	0.4444247
12	0x3f01a090	0.50635624
13	0xbf5864b3	-0.84528655
14	0xbdda7131	-0.10666121
15	0x3f222091	0.6333094
16	0xbea61b69	-0.32442787
17	0xbefd52a9	-0.49477127
18	0x3f3afcee	0.7304219
19	0x3ce7121e	0.028206881
20	0xbece3fd1	-0.40283063
21	0xbf43df8d	-0.76512986
22	0x3f3404b9	0.70319706
23	0xbe156234	-0.14588243
24	0x3e85e5a8	0.26151776
25	0xbf723a16	-0.9461988
26	0xbe9ec328	-0.31008267
27	0x3f67a09b	0.9047944
28	0xbe48edca	-0.1962196
29	0x3f25b048	0.6472211
30	0xbf3f8a39	-0.74820286
31	0xbf6ea594	-0.932214
32	0x3ed5ed02	0.41782385
33	0x3f9afbb9	1.210807
34	0x3e380095	0.17968972
35	0x3ed0aec2	0.4075833
36	0xbf2fbb54	-0.68645215
37	0xbf25cea8	-0.6476846
38	0x3f770264	0.9648802
39	0x341e3dbf	1.473736e-07
40	0xbf43dd6b	-0.7650973
41	0xbf1ef16e	-0.6208714
42	0x3f51a5d1	0.8189364
43	0xbf3defc8	-0.74194
44	0x3f26c32a	0.65141547
45	0xbf21265c	-0.62949157
46	0xbebcfc89	-0.3691142
47	0xbec449c7	-0.38337538
48	0xbe43c755	-0.19119008
49	0xbf5fe77f	-0.8746261
50	0x3f4e9b79	0.8070598
51	0x3ee097aa	0.4386571
52	0xbe989c5e	-0.298068
53	0xbd82d24a	-0.06387766
54	0x3ec53126	0.3851406
55	0x3d6f4f38	0.05842516
56	0x3f5a8b18	0.8536849
57	0xbde5486a	-0.111954525
58	0xbd98f791	-0.074690945
59	0x3f1677c8	0.5877652
60	0xbeda4e0b	-0.42637667
61	0x3f11b8e9	0.56922776
62	0xbf3fbcde	-0.74897563
63	0xbf4c147a	-0.79718745
64	0xbe093063	-0.13397364
65	0xbf3106e1	-0.6915112
66	0x3f1f1c2f	0.6215238
67	0x3f0a5662	0.5403806
68	0x3e2c6503	0.16835408
69	0x3f254f90	0.6457453
70	0x3f09dc28	0.53851557
71	0x3d53bef7	0.05169579
72	0x3f8237ee	1.0173318
73	0x3f55dbd3	0.8353855
74	0x3f431622	0.76205647
75	0xbf26d7c8	-0.65173006
76	0xbe251174	-0.16119939
77	0x3f0f42bb	0.559612
78	0x3e638795	0.22219689
79	0xbf05fb7a	-0.5233685
80	0x3efe2e21	0.4964457
81	0x3dc63b56	0.09679286
82	0xbf1b422d	-0.6064785
83	0xbe8cf6fa	-0.27532178
84	0x3e1735ea	0.1476666
85	0x3f3bd7d5	0.7337621
86	0xbee00b51	-0.43758634
87	0xbc439e0b	-0.011939536
88	0x3ea08c59	0.31357077
89	0x3f4efd7d	0.8085554
90	0x3e2b807f	0.16748236
91	0xbf0f77f8	-0.5604243
92	0x3ee2ec7f	0.44321057
93	0x3e97b2e2	0.29628664
94	0x3f08df40	0.5346565
95	0x3f112252	0.56692994
96	0x3f404137	0.7509951
97	0xbf82cc46	-1.0218589
98	0xbd044d48	-0.032300264
99	0xbf33249a	-0.69977725
100	0xbd337733	-0.04381485
101	0x3f623cf2	0.88374245
102	0x3c7de5e3	0.015496704
103	0x3b6fda4f	0.0036598628
104	0xbe9c97b9	-0.30584505
105	0x3e793c50	0.24339414
106	0x3e2bd9fe	0.16782376
107	0xbf531e85	-0.82468444
108	0xbe021ccd	-0.12706299
109	0x3f5435c0	0.82894516
110	0x3e12e017	0.14343296
111	0x3f442dbc	0.76632285
112	0x3d63c232	0.05560512
113	0xbf967cc9	-1.1756831
114	0x3f6ebe9d	0.932596
115	0xbf3db0bc	-0.740978
116	0xbd97fdf8	-0.074214876
117	0x3f265141	0.64967734
118	0xbea6b4f3	-0.32559928
119	0xbd856ed4	-0.065152794
120	0x3df8d4c8	0.1214996
121	0x3f1a27bd	0.60216886
122	0xbeaaeb7b	-0.33382782
123	0x3f1ac381	0.60454565
124	0xbedb2f76	-0.42809647
125	0x3f389c87	0.7211384
126	0xbe1d72d8	-0.1537584
127	0x3f33ba0b	0.70205754
128	0xbef436a3	-0.47697935
129	0x3f81e020	1.0146523
130	0xbeeaaeb0	-0.458364
131	0x3d700d39	0.05860636
132	0x3f53a932	0.82680047
133	0x3d76f61a	0.060293294
134	0x3f478541	0.77937704
135	0xbd12dfd7	-0.035858
136	0xbef25f94	-0.47338545
137	0xbe1cf269	-0.15326847
138	0x3f33b69a	0.702005
139	0x3f2834f2	0.6570579
140	0x3f1d6978	0.6148906
141	0x3f216663	0.63046855
142	0x3ebd589d	0.3698167
143	0xbec319dc	-0.38105667
144	0xbf67c7e9	-0.90539414
145	0xbd425f65	-0.047454257
146	0x3f24499f	0.64174837
147	0x3f4195fb	0.7561948
148	0x3f6ae6b6	0.91758287
149	0x3eae3542	0.34025007
150	0xbed047fb	-0.40679917
151	0xbdf24fc2	-0.11831619
152	0x3f25bda4	0.64742494
153	0x3e6dddeb	0.23229186
154	0x3eb9b579	0.36271265
155	0x3ebe90e1	0.3721991
156	0xbde10144	-0.109865695
157	0xbf1b3b44	-0.6063731
158	0x3f47c274	0.78031087
159	0xbe2e9d64	-0.17052227
160	0xbe4f2b1b	-0.20231287
161	0xbe9f0691	-0.31059697
162	0xbeb70457	-0.357455
163	0xbea5bd29	-0.3237088
164	0x3f367012	0.71264756
165	0x3db30cff	0.08742713
166	0xbf68ba77	-0.9090952
167	0xbbb83240	-0.0056212246
168	0x3f92dc56	1.1473491
169	0x3f522172	0.82082283
170	0xbec99319	-0.3937004
171	0x3f20693b	0.6266057
172	0xbefb2bd9	-0.4905689
173	0xbefa6989	-0.48908642
174	0x3f552e84	0.832741
175	0x3f0913e9	0.53546005
176	0x3e08a629	0.13344635
177	0x3f634057	0.8877005
178	0xbdba8439	-0.09107251
179	0xbcefb676	-0.029261809
180	0x3f1a53de	0.6028422
181	0x3eac8f3a	0.33703023
182	0x3e8f6af9	0.280113
183	0x3d1198e0	0.035546184
184	0xbf4a4be1	-0.7902203
185	0xbec8af3f	-0.39196202
186	0x3e8e7e16	0.2783057
187	0x3edb8be9	0.4288018
188	0x3eef8f67	0.46789095
189	0x3ef04457	0.4692714
190	0x3f051057	0.5197806
191	0x3eea5778	0.45769858
192	0x3f4ff017	0.81225723
193	0x3f88073a	1.0627205
194	0xbe673817	-0.2257999
195	0x3f10f2a8	0.56620264
196	0xbf29f23b	-0.6638524
197	0x3ef2f5bd	0.47453108
198	0x3f152118	0.5825362
199	0x3370337c	5.592618e-08
200	0x3b98705f	0.0046520676
201	0x3f6f18dd	0.93397313
202	0x3f0d285c	0.5513971
203	0xbf92844f	-1.1446627
204	0x3f1453ab	0.5794017
205	0x3f08f4e0	0.5349865
206	0xbec3b427	-0.38223383
207	0x3eaa1edf	0.33226678
208	0xbdd48449	-0.10376794
209	0x3e07dccb	0.1326782
210	0xbf07a582	-0.5298692
211	0xbf3b0a39	-0.73062474
212	0x3f1c81eb	0.6113574
213	0xbe3757a7	-0.1790453
214	0xbd0be3a0	-0.034152627
215	0x3d6a7860	0.057243705
216	0xbf35bbbf	-0.709896
217	0xbed65315	-0.41860262
218	0xbf1f31f4	-0.621856
219	0x3f41b62b	0.7566859
220	0x3f510d3a	0.8166081
221	0x3f5b202e	0.8559598
222	0x3f184260	0.5947628
223	0x3f030f14	0.5119488
224	0xbed3c098	-0.41357875
225	0x3faa2e25	1.3295332
226	0xbf140ba8	-0.57830286
227	0x3ed8185d	0.42206088
228	0x3f1b14c8	0.60578585
229	0x3cc3b657	0.023890657
230	0x3e50e456	0.20399603
231	0xbd1157ee	-0.035484247
232	0xbf0ad688	-0.542336
233	0xbed290c5	-0.41126075
234	0x3f27d4f2	0.65559304
235	0xbd841349	-0.06448991
236	0x3ee33286	0.44374484
237	0xbf3cc5a2	-0.73739064
238	0x3f383ba4	0.71966004
239	0xbd62f3c0	-0.05540824
240	0x3f5102ae	0.81644714
241	0x3f96c664	1.1779294
242	0x3e9dd84d	0.30829087
243	0x3f1ad92f	0.60487646
244	0xbe89d089	-0.26916912
245	0xbf3d92cc	-0.7405212
246	0xbf5b4de3	-0.8566572
247	0xbb0f6011	-0.0021877328
248	0x3f2ce1e2	0.6753217
249	0xbb6af5a0	-0.003585197
250	0xbf6bed4b	-0.92158955
251	0x3eb64228	0.35597348
252	0x3e261f7d	0.1622295
253	0xbf6dc628	-0.9288049
254	0xbef3ee4e	-0.4764275
255	0x3f41d484	0.757149

convs.0.bias f4 [16]
0	0x3ddf66c1	0.109082706
1	0xbe0e9ce3	-0.13927035
2	0x3ea7162e	0.3263411
3	0x3e65390a	0.2238504
4	0x3d946cc8	0.07247311
5	0x3eb20eb0	0.3477683
6	0x3e5e9da2	0.2173982
7	0xbc86caea	-0.016454179
8	0x3ea8111b	0.3282555
9	0x3e86da9e	0.26338667
10	0x3e6a4514	0.22877914
11	0x3da9a1f7	0.082828455
12	0x3d2a17ad	0.041526485
13	0x3e9ab597	0.30216667
14	0x3db0db42	0.0863557
15	0x3e0c8680	0.13723183

ffn.0.weight f4 [7, 16]
0	0xbf8aaeb4	-1.0834565
1	0xbfb35643	-1.40107
2	0x3ebe9bec	0.37228334
3	0xbee2e2bc	-0.4431361
4	0x3e08a576	0.13344368
5	0xbe0b1f2e	-0.13586113
6	0x3f594cec	0.84883
7	0x3bfbfca4	0.007690029
8	0xbe93efae	-0.288938
9	0xbf25f1e7	-0.6482224
10	0xbd7e3d95	-0.062070448
11	0x3f27393a	0.65321696
12	0xbd707664	-0.058706656
13	0x3f35ef15	0.71067935
14	0xbe97bf96	-0.29638356
15	0xbf33a691	-0.70176035
16	0xbf3d0bf8	-0.7384639
17	0xbf9c5c1c	-1.221561
18	0x3f272fd4	0.65307355
19	0x3ecb3d58	0.3969524
20	0xbed97a21	-0.4247599
21	0xbf043ade	-0.51652324
22	0xbf1a0ec8	-0.60178804
23	0xb64840c6	-2.9840025e-06
24	0x3f21257b	0.62947816
25	0xbefaf2f4	-0.49013484
26	0xbf011178	-0.5041728
27	0x3eff8f17	0.49913856
28	0xbf0d4d9c	-0.5519655
29	0xbf2d89ef	-0.67788595
30	0xbee69c26	-0.45041007
31	0xbf04bf7e	-0.51854694
32	0xbebc958a	-0.3683284
33	0xbfc51fe7	-1.5400361
34	0xbe9184d3	-0.2842165
35	0xbe892fae	-0.2679419
36	0x3efd1da3	0.49436674
37	0x3f42a52f	0.760333
38	0xbf029b34	-0.5101807
39	0x3a73edaa	0.0009305129
40	0x3f078ce1	0.5294934
41	0x3f604248	0.8760114
42	0x3e2b6e46	0.16741285
43	0xbf011d39	-0.50435215
44	0xbecd0bb7	-0.40048
45	0x3e85b006	0.26110858
46	0x3f03a172	0.5141822
47	0x3ea5b5bf	0.32365224
48	0xbf3a7af0	-0.7284384
49	0x3faa8e3e	1.3324659
50	0xbe9c4c74	-0.3052708
51	0x3f0703ce	0.5274018
52	0x3eb63bb5	0.35592428
53	0xbc66444b	-0.014054368
54	0x3f7b2e37	0.98117393
55	0x3952a64a	0.00020089108
56	0xbf3c01c6	-0.73440206
57	0xbf32c8a3	-0.698374
58	0x3f1fdb44	0.6244395
59	0xbf11464c	-0.5674789
60	0x3effbbc6	0.49947947
61	0xbecd07eb	-0.40045103
62	0x3e79bbc7	0.24388038
63	0xbf18125c	-0.59403014
64	0x3f5d4ba6	0.86443555
65	0x3fa5a05e	1.2939565
66	0xbd61fa29	-0.055170212
67	0x3ee1cbd0	0.4410081
68	0xbf49349a	-0.7859589
69	0xbf1f720b	-0.6228339
70	0xbe00be25	-0.12572534
71	0xb203fa38	-7.682097e-09
72	0x3e85fcfb	0.2616957
73	0x3ed2b83a	0.4115618
74	0xbef83bdd	-0.48483172
75	0xbecc4427	-0.39895746
76	0x3e6efffb	0.23339836
77	0xbf62ba1f	-0.8856525
78	0xbf1977e8	-0.5994859
79	0x3e7d85be	0.2475805
80	0x3f8af36c	1.0855536
81	0xbe259803	-0.16171269
82	0xbd619695	-0.055075247
83	0xbf3758da	-0.7161995
84	0xbf1a85c1	-0.6036034
85	0x3dcdc9ad	0.10048232
86	0x3e22bae9	0.15891613
87	0x35c33688	1.4544503e-06
88	0xbf81f3cb	-1.0152525
89	0xbec10fe1	-0.37707427
90	0xbefe11b2	-0.49622875
91	0xbecd1458	-0.40054584
92	0x3f043e56	0.5165762
93	0x3f0fe662	0.5621091
94	0xbec081ed	-0.37599126
95	0x3f3cefa8	0.73803186
96	0xbf8087e3	-1.0041469
97	0x3fa96f23	1.3237041
98	0xbf054fd7	-0.5207495
99	0xbec9e464	-0.3943206
100	0x3f80c802	1.0061038
101	0xbf13e24b	-0.5776717
102	0xbf54adc7	-0.83077663
103	0xb78bcdd6	-1.6665941e-05
104	0xbec29749	-0.38006046
105	0xbf3e905b	-0.7443902
106	0xbf3f0223	-0.74612635
107	0x3f8595ee	1.043638
108	0x3efeebc2	0.49789244
109	0xbf5265b8	-0.8218646
110	0x3f4b51c4	0.7942164
111	0x3f3b65aa	0.73202

ffn.0.bias f4 [7]
0	0x3ccdaa3e	0.025105592
1	0x3e9f6561	0.31132033
2	0x3de59427	0.112098984
3	0xbded1708	-0.115766585
4	0x3dac09e1	0.08400322
5	0x3e31ab9e	0.17350623
6	0xbec8a534	-0.3918854
