checkpoints/cora/0.8/GCN_2l/seed/0/GCN_2l_best.ckpt (torch, 95851 bytes, 6 tensors)

conv1.weight f4 [1433, 16]
00000000: 4997 a5bc 9301 be3b 6993 17bd 4418 ba3c
00000010: a1de 11bd 10b5 bebc 3308 0e3c eea9 273c
00000020: 93fc 823d 833b fb3c a615 09bd 03d4 7c3d
00000030: 6a73 02bd 7f83 9bbc 2969 c6bc 167f 793d
00000040: 5243 4f3d 51dd 19be 0075 2dbd b7f1 0bbd
00000050: 674a 19bd b9ae d73d a2bc 063e 85e5 6d3e
00000060: d59e e4bd ca18 f9bc b217 7bbb f375 c43d
00000070: 11b1 93bd 99aa e8bb 95f3 4abc fd0a 363d
00000080: b7fe 9cbc 7819 40bc b9eb 51be f844 adbd
00000090: 2d3e b13d a0bb ee3d 58b2 113e 5875 a9bc
000000a0: ef51 393c 491d 31be fc2d 643e dc03 d63c
000000b0: fb8b 283e b865 be3d 71d8 d13d 6762 ddbc
000000c0: 3e2b 823d 4920 2dbd 74af 0f3d 7084 af3d
000000d0: 69b4 a93b c227 ac3d d5ba 113e f905 5a3d
000000e0: d020 abbd fbad f8bc 256c 043e a5df 9abd
000000f0: 33d2 5cbd 77fa 99bc acd8 bfbc 6a74 6abd
00000100: 2c88 0b3e 3264 afbc a6f8 483d 33ff 623b
00000110: 58c5 203e 8a6f 233e 738b f03d bce6 983e
00000120: 0428 97bc 9916 95bd a7d8 3a3d f523 613e
00000130: ee27 ae3d 949a 3ebe e9ab 3abe e753 6d3d
00000140: b323 e93c 8991 c1bc 77af ff3c 8a75 363d
00000150: 1e97 993b 2130 d2bb d198 233d 2d26 173b
00000160: 36f9 14bd b8d3 373d f537 6f3d 5ef1 06bc
00000170: bb29 3fbd 7f88 8bbc 544a 2ebd c979 7bbd
00000180: 7edf 743d f603 213d 6749 623e 7955 bd3d
00000190: 8696 81bc 5c32 d9bd df65 0cbd b8eb 42be
000001a0: e50e 95bd 6bec 673e 4c52 a73d fa1d 2ebd
000001b0: fdeb 60bd db53 023e 497a 4fba 0cab f3bd
000001c0: f8bb 25bb 1c1a 13bd 32d2 31bd 498d 09bc
000001d0: cf23 4bbc 38d1 103d 54f8 373d 7cde 2a3d
000001e0: 682e 29bb fb8f 03bd 4fed eb3b c442 893c
000001f0: 9c9e 8ebc ccb2 a43b e76a 9b3c f5db 063d
00000200: a584 613d 60f5 0bbe f23d 4e3d a3d9 03bd
00000210: 9444 8ebd 1a72 b83d 67b0 b93c 0d31 b63d
00000220: 47a9 07be f01d 3abc 7491 a5bd 8189 fd3a
00000230: 107b 00be d4ce e83d 74c0 f13d 9060 c63d
00000240: 4eb7 acbc fd1a 8abc c201 41bd ecb1 84bd
00000250: 1f50 0ebd 1d70 123c f742 54bc 82d5 e53b
00000260: a3c1 153c 1827 99bc f61e 7abd fbf8 5b3d
00000270: b435 f23c e0b3 5e3d 72d8 973d 5cb1 873d
00000280: cbc4 523b 0623 97bd 68ca f7bc 8232 b3bb
00000290: 59d4 64bd 86e9 cb3c cd1f 733d 4ed5 0d3d
000002a0: 0501 2bbd 76d8 c13a 5af2 a93b cdf8 c03c
000002b0: 264d 84bd a9fd 233d c4ba 143d 0a32 113d
000002c0: bc91 833c a61f 513c e49a 813d 5285 4d3c
000002d0: 450e 693c 53e0 08bd 6c9b 63bd 226d 88bd
000002e0: ce78 0fbc 602f 303d 9444 223c 3ba3 9bbc
000002f0: 36fb 963c 9bd4 8c3c a018 e3ba af74 54bd
00000300: 9102 393d 0d02 8abd 3b59 debc 2903 d53c
00000310: b887 85ba 61f0 7b3d 5286 eb3d b202 d23d
00000320: 2aef 9bbd 290c b6bc e368 c43d c4eb 203c
00000330: 138c fcbb 7170 b4bc 4426 5cbd 29cc 2ebd
00000340: 14f8 08bc e299 dcbc 46c9 6cbd 55b4 e7bc
00000350: 27f7 863c 6c4b 873d 71b4 053d 2a74 8a3d
00000360: 9cde 5d3c 2b45 84bd 6468 f1bb 46c4 573c
00000370: acdb db3c db21 00bc f71e a53c 873b 463d
00000380: 46a1 e73c 5fbd 1abd fb6f 46bc ff69 69bd
00000390: 24be 0c3d 1d61 6f3d 816f 6a3c bb6d 8e3d
000003a0: e577 89bd 855a 72bd 71a8 603c 8800 e53b
000003b0: a011 9e3d 72c9 4e3c ff1e 97bc 2aca cebc
000003c0: 1156 9f3c 1fe7 c8bb f8a2 b13c 90cf 8c3c
000003d0: 252d 773c e576 b93b 9901 873c 55ed 903c
000003e0: 3679 eabc b512 0d3c 1551 013d ce8c 78bc
000003f0: 8675 83bc da0c b6bc c5a0 15bd 7810 2dbd
-0.02021374 0.0057985275 -0.037005816 0.022716649 -0.035612706 -0.023279697 0.008668947 0.0102333855
0.06395831 0.030668026 -0.03346791 0.061725628 -0.03184835 -0.0189836 -0.024220066 0.060912214
0.05060131 -0.15025832 -0.042347908 -0.034166064 -0.03742447 0.105313726 0.13157895 0.23232086
-0.11163107 -0.030407328 -0.0038313684 0.095928095 -0.07211507 -0.007100415 -0.012387176 0.044444073
-0.019164426 -0.011724822 -0.20500077 -0.0846042 0.08654437 0.116568804 0.14228189 -0.020685837
0.011311038 -0.17296328 0.22283167 0.026124887 0.16459648 0.09296745 0.10246361 -0.027024461
0.06355904 -0.042267118 0.035079435 0.08570182 0.0051789773 0.08406021 0.14231427 0.053228352
-0.08355868 -0.030356398 0.12931879 -0.07562188 -0.0539114 -0.018796189 -0.023418747 -0.057239927
0.13626164 -0.021410082 0.049065255 0.0034636974 0.1570028 0.15960518 0.11745348 0.29863536
-0.018451698 -0.07279701 0.045616772 0.21986373 0.0850371 -0.18613654 -0.18229641 0.057941344
0.028459406 -0.023628967 0.031211598 0.044545688 0.004687204 -0.006414429 0.03994066 0.0023063526
-0.03637048 0.044879645 0.058402974 -0.008236257 -0.046670657 -0.01703286 -0.042551354 -0.06139544
0.05978345 0.039310418 0.22098313 0.09244818 -0.015818845 -0.106053084 -0.03427684 -0.19035232
-0.072782315 0.2264878 0.08169994 -0.042509057 -0.054912556 0.12727301 -0.0007914645 -0.11897859
-0.002528904 -0.03591357 -0.04341335 -0.008395501 -0.012398674 0.035355777 0.04491456 0.041716084
-0.0025815014 -0.032119732 0.0071999202 0.01675547 -0.017409615 0.005026197 0.018971873 0.03292461
0.05505814 -0.13667822 0.050352044 -0.032189976 -0.06946674 0.09006138 0.022667123 0.088960744
-0.13248168 -0.011359677 -0.080843836 0.0019343348 -0.12546945 0.11367574 0.11804286 0.096863866
-0.0210835 -0.016858572 -0.047120817 -0.064792484 -0.03474438 0.008937863 -0.012955419 0.0070139775
0.009140405 -0.0186954 -0.061064683 0.053704243 0.029566623 0.05437076 0.074143305 0.066256255
0.0032160755 -0.07379727 -0.030247882 -0.0054686675 -0.055866573 0.024891626 0.0593565 0.03462725
-0.04174902 0.0014789242 0.0051863613 0.023556137 -0.064600274 0.04003683 0.036310926 0.03544811
0.016060703 0.012763893 0.06328371 0.012543993 0.0142245935 -0.033417057 -0.055568144 -0.066614404
-0.008756829 0.04301393 0.009904046 -0.018998733 0.018430334 0.017191222 -0.0017326064 -0.05186909
0.045168463 -0.067386724 -0.027142158 0.026002483 -0.0010187542 0.06150854 0.11500229 0.1025442
-0.07613976 -0.022222595 0.09590318 0.009821836 -0.007707128 -0.022026272 -0.05374743 -0.04267517
-0.008359928 -0.026928846 -0.057809137 -0.028284231 0.016475273 0.066061825 0.032642785 0.06760438
0.013541844 -0.06458505 -0.0073671807 0.013169354 0.026838146 -0.007820572 0.020156367 0.048396613
0.028275143 -0.037778255 -0.012111659 -0.05698585 0.03436102 0.058442224 0.014308811 0.06954523
-0.06712321 -0.059168357 0.013712035 0.0069885887 0.077182055 0.0126212705 -0.018447397 -0.025242884
0.01945022 -0.0061310674 0.021684155 0.017188817 0.015086447 0.0056599253 0.016480254 0.017691294
-0.028622251 0.008610417 0.031571466 -0.015170289 -0.01604725 -0.022222925 -0.036530275 -0.042252034

conv1.bias f4 [16]
00000000: 0223 993e 0e08 d13d 3b25 c33e ef54 a43e
00000010: c890 4c3e 6c13 803e 32b4 673e 2f9a 7d3e
00000020: b73d 083e 0b6a 213e b195 673e 4e3e 903e
00000030: 14dc 383e b952 6d3e 7087 a13e 1fe6 b43e
0.2990952 0.102066144 0.38114342 0.3209605 0.19977105 0.25014818 0.22627333 0.24765848
0.13304792 0.15763108 0.22615696 0.28172535 0.18052703 0.23176087 0.31548643 0.35331818

convs.0.weight f4 [16, 16]
00000000: 9dda 523f 4665 a33d 39b1 d03e 71a2 4b3d
00000010: b04c 2f3f c6b5 803e 9e59 113f d08f f83e
00000020: 71d2 623e 5112 2abe 269e f23e 8668 1bbe
00000030: ebd0 ed3e f5c9 8e3e dd6c de3d 8200 e83e
00000040: 3f43 0f3e 1ba8 92be 9bac c0bc 23fc 4f3f
00000050: 77e4 8ebe 8c04 0ebf a2c2 dbbd d76b 453e
00000060: 8df8 733f 98b7 55bf 6837 eabd ef55 843e
00000070: 8406 02bf 1d67 2c3f b1eb 2dbf 734b 63be
00000080: bdb2 453f 883f 283f 0dc8 4a3f 8093 4b3d
00000090: a229 8c3e c9e9 49bf 0aab a83e da82 fc3e
000000a0: 292b a93d a5fa 6bbf 9467 ed3e 821f 5bbe
000000b0: c98e 7ebd 42e3 e33e 868e b6be cfde c53d
000000c0: bceb 13bf 1784 1e3e af52 863e affa 06be
000000d0: 7568 3bbf 3c00 f6be 54b4 ef3e 4141 573f
000000e0: 2aa8 363f bb31 7ebe 9b2a 6f3f 5e69 99be
000000f0: d9a1 f53e 16ba 3c3f 3228 25bd b818 ee3e
00000100: e198 20be ce8f 20bf 0d38 5c3f a864 1c3f
00000110: 1a26 4439 a24e a9be 7ca0 393f bf8d 07bf
00000120: 045d 2d3f 27f5 52bf f34d 26bf 9865 0e3f
00000130: a058 a2bc ee5d fb3e 6044 01bd 40bd 1abe
00000140: df7a 493e 197f aa3e 28a5 0a3f 760f c23d
00000150: caeb fc3e a931 1d3f f0e3 e43e 8e89 a6be
00000160: b8f3 8f3e 7f9e 8a3e 0dc8 a03e 91b0 093f
00000170: 1660 3a3f f379 2f3f a202 4d3f 566c ab3d
00000180: f2ef 0fbf e59b 87be 31e8 263f d5eb 59bf
00000190: 76c3 4cbe 9fbd bb3e 88dc a53e 41e0 bdbe
000001a0: 8c48 a73d 5b55 843f 2766 463f 7c55 d2bd
000001b0: 9862 d63e e2db 0cbf d5d2 0f3f 74a9 4b3f
000001c0: 0b45 0a3d cd56 f53e 39f9 2b3f f09b 153f
000001d0: 2e3e 433f ed77 293f 099f 033f 2788 b83e
000001e0: 240d 74bf ef26 ae3f f0af 55bf 7861 5b3c
000001f0: eeec 033e 8d7a 6c3e 1843 403f 17ea 383f
00000200: 43a9 14bf 55a5 00bf 6e4c 0bbf efdf 4f3f
00000210: 9ed5 49bf 6b4c 27bf f337 cfbe b164 3f3f
00000220: 20ee 403f 7414 8e3e 8e25 83be 9be7 553f
00000230: 1acd aabe c590 223f 59b1 0fbf 7325 80be
00000240: 59e1 943e 4f7e 053d 572a 9fbe 3a09 8abe
00000250: b424 af3e 7359 40bf 1e39 bfbe 239a 863f
00000260: 1027 0dbe 030a 0e3e 5657 7a3e 0d68 5abf
00000270: 12bd 1bbf 614c 24bf eab4 e5be 0b5d 863e
00000280: 6e23 f6be 4fce 8cbf 712d c73e 65e8 ecbe
00000290: d22e 05bf f259 01be f37d 233f e6db 77bf
000002a0: 64af 593f 1367 26bf b3a9 373f d418 2ebf
000002b0: 3f02 a83e 452b 1ebf 7045 723f a5b1 033f
000002c0: eede 093f ac04 1e3e 18c0 37bf 0c73 223f
000002d0: a7d0 553f 3640 2f3f 50ae 2cbf d06e 3e3f
000002e0: f49c 4bbe f258 943f 0a4e 3dbe 21d6 9abe
000002f0: 6057 0cbf 1b4b 30bf 10a7 8f3c 8c7e cf3e
00000300: 54ed 553f 10b2 6bbf fcd7 ce3e 30d7 883f
00000310: dc80 673f 37af 2c3f 2ce2 cc3e 3dd8 4bbf
00000320: a381 553f 5761 09bf c1b8 7ebf 06bd 043f
00000330: 00f0 a0bf 04f5 ccbe bb1f 06bf f985 d5be
00000340: 6fe4 bc3e f5e2 0e3f 22c1 48bf 3295 47bf
00000350: ca93 053f df8c 0a3f 03b5 c9be 3ae2 0fbf
00000360: 4970 283e 60dc 9cbe 749d 6f3f cd13 eb3d
00000370: eb91 343e 30ab 44bf edaa dc3d b503 1dbf
00000380: f4e4 133f a491 2b3f 0de4 73bf 0b8e aebe
00000390: 25cd 9d3e c326 c53d a847 1bbf 520b 4cbf
000003a0: c2fe 38bd 9a31 44be cafb 403f bbc1 5f3f
000003b0: 48d2 2a3f 648a 7dbe 05e7 ce3e 4305 5dbf
000003c0: 4077 433e 9140 493f a39c 19bf 6e7b 803d
000003d0: 519e 0abf abea 0f3f fb11 55bf 6274 4d3f
000003e0: ff09 58be fe9c 853f 72a1 953c 9af6 493f
000003f0: 71de 013f 0aa2 bf3e c3ce f7bd ec2f 00bf
0.8236483 0.07978301 0.4076021 0.049715463 0.6847639 0.25138682 0.5677737 0.4854722
0.2215059 -0.1660855 0.47386283 -0.15176591 0.46448454 0.27888456 0.10860608 0.45312887
0.13990496 -0.2864388 -0.023519805 0.81244105 -0.2790868 -0.5547569 -0.10730483 0.19279419
0.95301133 -0.83483267 -0.11436349 0.25846812 -0.5079119 0.6734484 -0.6793776 -0.2219675
0.7722586 0.6572194 0.79211503 0.049701214 0.27375513 -0.7887235 0.32942992 0.49318582
0.08260185 -0.9217933 0.46368086 -0.21398738 -0.06214789 0.4450932 -0.35655612 0.09661638
-0.5778158 0.15480076 0.26234958 -0.13181566 -0.73206264 -0.48047054 0.46817267 0.84083945
0.7135035 -0.24823658 0.93424386 -0.299632 0.47975042 0.73721445 -0.040321536 0.46503234
-0.15683319 -0.6271943 0.86023027 0.6109109 0.0001870621 -0.33067805 0.72510505 -0.5295066
0.67720056 -0.8240532 -0.6496269 0.5562377 -0.01981765 0.490951 -0.031559348 -0.15111256
0.19675778 0.33300093 0.5415826 0.09475605 0.49398643 0.614039 0.44705153 -0.3252682
0.2811563 0.27074048 0.31402627 0.53785044 0.72802866 0.68545455 0.8008214 0.08370273
-0.562255 -0.26486126 0.65198046 -0.85125476 -0.19996437 0.36668107 0.32394814 -0.37085155
0.08168134 1.0338548 0.7749962 -0.10270211 0.41872096 -0.55023015 0.5618108 0.7955544
0.03375725 0.47917786 0.6717716 0.58441067 0.76266754 0.6619862 0.51414543 0.36041376
-0.9533255 1.3605632 -0.83471584 0.013389938 0.1288335 0.23093624 0.75102377 0.7223219
-0.5807077 -0.50252277 -0.544135 0.8120107 -0.7884158 -0.6535098 -0.40472373 0.7476302
0.7536335 0.2774998 -0.2561459 0.83556527 -0.33359605 0.6350215 -0.56129986 -0.2502857
0.29078177 0.03259116 -0.3108699 -0.26960164 0.3420769 -0.7513649 -0.37348264 1.0515789
-0.13784432 0.13871007 0.24447379 -0.8531502 -0.60835373 -0.64179045 -0.4486459 0.2624286
-0.48073906 -1.100046 0.38901857 -0.46271053 -0.5202457 -0.12631968 0.6386406 -0.96819913
0.8503325 -0.6500103 0.71743315 -0.68006635 0.32814214 -0.61784774 0.94637203 0.5144294
0.5385579 0.1543147 -0.71777487 0.634568 0.83521503 0.68457353 -0.6745348 0.74387836
-0.19884092 1.1589644 -0.18486801 -0.30241492 -0.54820824 -0.688646 0.017535716 0.40526235
0.8356526 -0.92068577 0.40399158 1.069067 0.90431 0.67454857 0.40016305 -0.7962683
0.83400935 -0.53664154 -0.9950066 0.51850927 -1.2573242 -0.40030682 -0.52392167 -0.41703776
0.3689303 0.5581506 -0.784197 -0.7796203 0.52178633 0.541212 -0.39395913 -0.5620457
0.16449083 -0.30636883 0.9359963 0.11478386 0.17633788 -0.7682371 0.10774789 -0.6133378
0.5777123 0.67019105 -0.9526985 -0.34092745 0.30820575 0.09626534 -0.60656214 -0.79704773
-0.04516483 -0.19159546 0.753842 0.87404984 0.66727114 -0.24759823 0.4041063 -0.86336154
0.19088459 0.78614146 -0.60004634 0.06273542 -0.5414782 0.5621745 -0.8323056 0.8025571
-0.21097563 1.0438535 0.01826546 0.7889191 0.50730044 0.37428313 -0.120999835 -0.5007312

convs.0.bias f4 [16]
00000000: 06c5 833e 53e2 123e 6b41 e53c 10f4 383d
00000010: 84c2 9e3e 6d38 7c3e 0cb8 b8bd 2c55 733e
00000020: 0d7b 883d baf7 143f 3976 713e b02a 9e3e
00000030: 80f5 8e3d ab13 063e 5f89 cf3d 3c8d 2a3e
0.25736254 0.14344148 0.027985295 0.04515463 0.3100778 0.246309 -0.09019479 0.23762959
0.06664095 0.581905 0.23580255 0.30891943 0.06980419 0.1309344 0.10133623 0.16655439

ffn.0.weight f4 [7, 16]
00000000: e04b c4bd aa71 41bf bd84 0c3f 582b f03e
00000010: d8d3 f03e bcf6 c43e 82a3 343f 9ba8 14bd
00000020: 330e d8be d132 733f a6dc 06bf c117 3bbf
00000030: 8d07 2fbf af6e a3be e740 b43e bb31 293f
00000040: 3c8f 253f a63c 063f 56a8 edbe 8635 18bf
00000050: f6a2 c43e 72bf 02bf b921 9dbe 47b5 263f
00000060: 7fa8 05bf 3387 6abf 1ff0 123f e4a9 2fbf
00000070: c9fa eebe 5cfc 9abe b42c fbbe 4613 ecbe
00000080: 8cb8 b4bc 6039 d83e be76 eebe ba7f 2abf
00000090: 1e7a 9a3d 2b97 203f 07c4 e9be 5094 c4be
000000a0: 9e26 37bf 7cc9 a83f b694 943e efda 143f
000000b0: 40cf 413f e8b8 a8be 9160 2d3f f9c4 86be
000000c0: 1282 11bd 9abf f83a e474 be3d b990 fc3e
000000d0: 77eb 2abf 3982 1fbf bc8b 003e 6475 823e
000000e0: 3903 8a3e 7b44 3bbf 9840 dabe 1313 5b3f
000000f0: 39a0 483e 7b75 313f 1849 d1be e560 d7be
00000100: dbd0 cf3e 149f 6cbf 99fe 0abf 92a4 023f
00000110: 7a24 f13e 8ea6 bf3e bdae a4be 9d71 87bf
00000120: 4403 143f d430 34bf f07c 133d df5e d93e
00000130: 1114 1bbf 902a 2fbf 0e3d 74be 8472 42bf
00000140: a150 e3be 18b9 fdbe 452d 43bf 3271 0e3e
00000150: 80b3 1dbf 1e11 efbe 4351 2bbf 2c51 303f
00000160: 1b39 ec3e e315 3f3f 99d3 983e 512f 16bf
00000170: d70b 06bf 7fdc 9bbe 07dd fbbe 097a 9d3e
00000180: dd73 acbe 9036 43bf 2f8c cd3e 2922 3abf
00000190: a56a 0dbf 8cbd 1bbf a9c9 223f 0372 36bf
000001a0: 425f 4d3f 6344 c1bf 538f 463f f298 4cbf
000001b0: 1bd1 4f3f 51dc 30be 4af5 343f 75b1 0d3f
-0.095847845 -0.7556406 0.5489004 0.4690807 0.47036624 0.38469493 0.70561993 -0.036293607
-0.42198333 0.94999415 -0.5268043 -0.7308312 -0.68370897 -0.31920382 0.35205767 0.6609151
0.64671683 0.5243629 -0.46417493 -0.5945667 0.3840558 -0.5107337 -0.3068979 0.6512036
-0.5221023 -0.9161255 0.57397646 -0.6861861 -0.4667571 -0.3027066 -0.49057543 -0.46108454
-0.022060655 0.42231274 -0.46574968 -0.66601145 0.07542823 0.62730664 -0.4565737 -0.38394403
-0.715433 1.3186488 0.29019707 0.58146566 0.75706863 -0.32953572 0.67725474 -0.26322153
-0.035524435 0.0018978 0.09299639 0.49329165 -0.6676554 -0.6230808 0.12553304 0.25480187
0.26955584 -0.7315137 -0.42627406 0.8557598 0.1959237 0.69319886 -0.4087608 -0.42066112
0.40589032 -0.92430234 -0.54294735 0.51032364 0.47098142 0.3743176 -0.32164565 -1.0581547
0.5781748 -0.70387006 0.03600782 0.42455193 -0.60577494 -0.6842432 -0.23851416 -0.75955987
-0.44397452 -0.49555278 -0.7624095 0.13910368 -0.6160202 -0.46692747 -0.6692087 0.6887386
0.46137318 0.7464277 0.29848936 -0.5866595 -0.52361816 -0.30441663 -0.49192068 0.30757168
-0.33682147 -0.7625513 0.40146014 -0.72708374 -0.5524085 -0.608361 0.6358896 -0.7126772
0.80223477 -1.5098995 0.77562445 -0.79920876 0.81178445 -0.17271544 0.7068678 0.553489

ffn.0.bias f4 [7]
00000000: b32a 87be d8a6 3b3e 514f aabc 0132 81be
00000010: 07aa 1c3e 3f3a 6bbd 422b a9be
-0.26399764 0.18325365 -0.020789774 -0.25233462 0.15299235 -0.057428595 -0.33040816
