attack_checkpoints/cora/20/GCN_2l/GCN_2l_best.ckpt (torch, 95851 bytes, 6 tensors)

conv1.weight f4 [1433, 16]
-0.0263962 -0.021009194 0.06640311 -0.011869648 0.07400013 -0.15770632 -0.08970882 0.040529214
-0.022081077 0.082551196 0.010172876 -0.055639353 0.037365384 0.033069354 0.0072314884 -0.02139579
0.009411607 -0.06718062 0.13923056 0.04204846 0.098666556 -0.12480721 -0.060392305 0.18157753
0.11966368 -0.16850509 0.017877448 -0.016407171 0.06466496 0.009077759 0.113630384 -0.11392006
0.036485612 0.2504375 0.038839933 0.24756144 0.15551472 -0.0003289543 -0.15353318 0.072026044
0.030601813 0.04275359 0.0725315 0.08627239 -0.15485382 0.088723905 0.074123055 0.16438884
0.093912944 0.084371895 -0.0011381429 0.09446761 0.0976105 0.09125662 -0.0532539 -0.0030253308
-0.0053553064 0.111557744 0.06738023 -0.020203149 -0.023530671 0.04652648 0.074214116 0.06738129
0.18474126 -0.039111108 0.03011521 -0.11695712 0.2179656 -0.15585247 0.2089219 0.2808397
0.27119356 -0.12960638 0.14163345 0.29883242 -0.17185901 -0.14935824 -0.15301251 -0.22751543
0.068136536 -0.0059244856 -0.059295464 -0.018241037 0.022526955 -0.0027881674 0.024402762 -0.044678185
-0.0076580266 0.1698346 -0.0009883376 0.076089755 -0.005427226 0.02561389 -0.065415286 -0.025297558
0.16058211 0.034200903 -0.21832438 -0.20011759 -0.17547414 0.17800812 0.23082525 -0.14353122
-0.07144615 0.3302614 -0.18220994 0.09780116 0.21996242 0.26027262 -0.1258435 0.0077603227
-0.066303276 -0.007492889 0.082955934 0.034750216 0.03887696 -0.13136703 -0.09266929 0.15508182
0.057682086 -0.16372909 0.021247758 -0.03496151 0.0022581602 -0.018308401 0.05196738 -0.053641975
-0.09252314 0.05053922 0.11225741 0.047213085 -0.05545105 -0.09233037 0.010679691 0.2117577
0.09137894 -0.13132483 -0.06933621 -0.13941154 0.16766433 0.14177623 0.1157814 -0.06548924
0.01826023 -0.044594508 0.0016391973 0.0036409916 -0.011950483 -0.04805583 0.0062019546 0.0042288373
-0.026332723 -0.10796427 0.0050520636 -0.086190425 0.026108006 0.023252044 0.10541888 0.020737316
-0.0072171986 0.019618778 0.0045513664 0.05309058 0.02589831 -0.09717907 -0.12299039 0.026868768
-0.009109497 0.009425947 -0.016655376 -0.08933174 -0.0001691678 0.07574985 0.04794334 0.0064431946
0.055361137 -0.01669946 -0.060024776 -0.042332068 -0.03297235 -0.0016561222 0.043597437 -0.044148065
-0.027906423 0.08483363 -0.03475431 -0.017822495 0.04655309 0.06067577 0.009696885 -0.010669239
0.058271136 -0.031596486 -0.014628786 0.010685493 0.09864575 -0.084581815 -0.044311564 0.104591966
0.05776189 0.07434063 0.03044487 0.1444282 -0.035778325 0.03158917 -0.055596154 -0.09859009
0.024081819 0.0011332711 0.021213133 0.0791397 0.04556227 -0.09455222 -0.052336108 0.018124215
-0.00067104906 -0.04935858 0.04455105 -0.104562044 -0.04252736 -0.010111832 0.038552206 0.04884968
0.015011333 0.047357246 -0.041050825 0.04143152 -0.030928494 0.039812796 0.040147133 0.018843804
0.060049742 -0.10030197 0.03658819 0.08882452 -0.07898967 -0.06191864 -0.00039594894 0.023800962
0.009623639 0.16212094 -0.0874942 0.041976806 -0.0675868 0.06457462 -0.018268483 -0.072868966
0.013965585 0.17116047 -0.015536903 0.16719367 -0.074357085 0.0289283 -0.15065767 0.085859515
00000000: d83c d8bc 791b acbc 5bfe 873d e978 42bc
00000010: 618d 973d c47d 21be 42b9 b7bd f601 263d
00000020: 60e3 b4bc 9a10 a93d 22ac 263c 17e6 63bd
00000030: 720c 193d bb73 073d 1ff6 ec3b 3946 afbc
00000040: 2433 1a3c fe95 89bd 7592 0e3e 023b 2c3d
00000050: b111 ca3d ec9a ffbd ec5d 77bd 76ef 393e
00000060: 3b12 f53d 998c 2cbe ba73 923c 5568 86bc
00000070: 106f 843d e2ba 143c 0cb7 e83d ec4e e9bd
00000080: f071 153d 5839 803e 9f16 1f3d bf80 7d3e
00000090: 403f 1f3e 8077 acb9 cd37 1dbe 6482 933d
000000a0: a7b0 fa3c 631e 2f3d 658b 943d 94af b03d
000000b0: 0092 1ebe e1b4 b53d d4cd 973d 8c55 283e
000000c0: 6e55 c03d 2ccb ac3d bd2d 95ba 3c78 c13d
000000d0: 04e8 c73d c0e4 ba3d c320 5abd a144 46bb
000000e0: 917b afbb 6378 e43d a5fe 893d 1381 a5bc
000000f0: 65c3 c0bc 8d92 3e3d 92fd 973d 34ff 893d
00000100: d02c 3d3e f832 20bd 2cb4 f63c 3787 efbd
00000110: 6032 5f3e ca97 1fbe 9fef 553e 39ca 8f3e
00000120: e2d9 8a3e 89b7 04be 5c08 113e 9000 993e
00000130: cffb 2fbe 5ef1 18be 50af 1cbe cef9 68be
00000140: 2b8b 8b3d 3022 c2bb cddf 72bd 3a6e 95bc
00000150: 738a b83c b0b9 36bb 4de8 c73c 7900 37bd
00000160: 2ff0 fabb 1fe9 2d3e 1b8b 81ba f2d4 9b3d
00000170: dfd6 b1bb 38d4 d13c 73f8 85bd d33c cfbc
00000180: a36f 243e 3f16 0c3d 6d90 5fbe a0eb 4cbe
00000190: 7eaf 33be c347 363e 745d 6c3e d9f9 12be
000001a0: 5c52 92bd 0618 a93e 3e95 3abe f94b c83d
000001b0: d43d 613e 7442 853e 1edd 00be 4e4a fe3b
000001c0: 03ca 87bd e986 f5bb cde4 a93d 3e56 0e3d
000001d0: 723d 1f3d 1485 06be 66c9 bdbd c5cd 1e3e
000001e0: 0d44 6c3d 99a8 27be c70f ae3c cd33 0fbd
000001f0: a4fd 133b 80fb 95bc bfdb 543d b0b7 5bbd
00000200: c67c bdbd 3702 4f3d 37e7 e53d 8262 413d
00000210: a420 63bd b417 bdbd dff9 2e3c 03d7 583e
00000220: e224 bb3d 047a 06be 2500 8ebd e6c1 0ebe
00000230: 33b0 2b3e ca2d 113e cc1e ed3d 391f 86bd
00000240: 7a96 953c bba8 36bd 56da d63a b49d 6e3b
00000250: f5cb 43bc 31d6 44bd c439 cb3b 0f92 8a3b
00000260: b9b7 d7bc 5f1c ddbd c88b a53b 9b84 b0bd
00000270: 75e0 d53c 127b be3c dbe5 d73d 4ee1 a93c
00000280: 407e ecbb 8fb7 a03c a123 953b 8275 593d
00000290: b128 d43c d205 c7bd 63e2 fbbd e41b dc3c
000002a0: 0040 15bc 4a6f 1a3c db70 88bc 8ff3 b6bd
000002b0: a362 31b9 bd22 9b3d 3c60 443d 6f21 d33b
000002c0: 5cc2 623d 4ecd 88bc 8adc 75bd 6464 2dbd
000002d0: 040e 07bd 3d12 d9ba 3a93 323d 9ad4 34bd
000002e0: 039c e4bc 41bd ad3d 895a 0ebd 7b00 92bc
000002f0: 74ae 3e3d 2887 783d afdf 1e3c 08ce 2ebc
00000300: b7ad 6e3d 516b 01bd 93ad 6fbc 3512 2f3c
00000310: c806 ca3d 3b39 adbd 0b80 35bd 5034 d63d
00000320: bb97 6c3d e63f 983d 8567 f93c fce4 133e
00000330: 4b8c 12bd a563 013d cbb8 63bd 9ae9 c9bd
00000340: 3c47 c53c 458a 943a 2ac7 ad3c ff13 a23d
00000350: 819f 3a3d 98a4 c1bd 635e 56bd 3c79 943c
00000360: 57e9 2fba 392c 4abd 297b 363d a024 d6bd
00000370: 2b31 2ebd 19ac 25bc ebe8 1d3d 9a16 483d
00000380: 18f2 753c acf9 413d e924 28bd 19b4 293d
00000390: c15d fdbc be12 233d 5271 243d 525e 9a3c
000003a0: b8f6 753d 1f6b cdbd 7fdd 153d a1e9 b53d
000003b0: 56c5 a1bd 669e 7dbd 5e97 cfb9 3cfa c23c
000003c0: 78ac 1d3c 0803 263e 2930 b3bd dfef 2b3d
000003d0: f36a 8abd b33f 843d c9a7 95bc 533c 95bd
000003e0: e9cf 643c b144 2f3e 7f8e 7ebc d134 2b3e
000003f0: 8748 98bd 0bfb ec3c 0146 1abe 1dd7 af3d

conv1.bias f4 [16]
0.21152149 0.0937414 0.13666499 0.074247 0.14334567 0.12391592 0.2399596 0.048440978
0.068203084 0.13956484 0.19875191 0.11349146 0.27768373 0.20281743 0.20132986 0.15584984
00000000: 1799 583e 7efb bf3d e8f1 0b3e d00e 983d
00000010: 35c9 123e a1c7 fd3d f8b7 753e 0c6a 463d
00000020: 0fae 8b3d 16ea 0e3e 9f85 4b3e 366e e83d
00000030: 902c 8e3e 5faf 4f3e 6a29 4e3e 1a97 1f3e

convs.0.weight f4 [16, 16]
-0.12512957 -0.27032837 -0.54521114 0.26191363 0.00076916325 -0.008997414 0.6844245 0.2841149
0.41532284 -0.046671174 0.16162346 0.36785975 0.6539312 0.42961 -0.6511312 0.32609767
0.23653983 0.21019436 0.51964134 -0.038301628 -0.3585067 -0.20892264 -0.6431033 -0.3303648
0.6531576 0.4985845 0.5469894 0.06333745 -0.6214089 0.449004 0.8757323 -0.20938355
0.24187665 0.77596223 0.6015538 -0.093253136 0.5251506 0.2236236 -0.39384496 0.3536369
-0.41170225 0.6847867 -0.117604226 -0.20751143 0.041630905 -0.27521738 0.26152036 0.20239815
-0.030229699 -0.077865265 0.6948296 0.08762281 0.11804147 -0.26307783 -0.09699773 -0.5665978
-0.17556304 0.65535337 -0.00585686 0.32800084 0.056341764 0.6129808 0.67451406 -0.28022048
0.41854608 0.14791241 -0.30034354 0.1733383 0.49189615 -0.1259195 -0.42877042 -0.16565084
-0.5796581 0.38244894 -0.38725212 -0.16702156 0.4958804 0.47758195 -0.5651729 0.7145326
-0.17268127 0.0982055 -0.16788492 0.13507122 -0.8015611 0.24640463 0.44264913 0.4203069
0.46802524 -0.3731131 0.7034861 0.7473346 -0.24511254 0.30609483 0.59897816 0.11521812
-0.32316157 0.42152056 -0.50141054 -0.082166456 -0.042111117 0.4263292 0.6784669 0.6324283
0.39278594 -0.79716325 0.69939 0.7153463 0.5777573 -0.26331314 0.3137925 0.49373305
-0.17774604 -0.12756468 0.6398568 -0.12162565 0.83952653 0.54665226 -0.56782216 -0.41159403
-0.05984273 -0.31926903 -0.480361 -0.58238494 0.045914873 -0.22750069 -0.4093334 0.10083394
-0.25517458 -0.17927256 0.5406247 -0.11150357 0.7106396 0.22164863 -0.65884393 0.44561446
0.07533442 0.13134545 0.2560255 0.27122104 -0.01957057 0.058099285 0.18409494 0.2939073
0.8476771 -0.6990554 -0.59286433 -0.11322548 -0.6143541 -0.6073489 0.5660223 0.46099606
0.6283756 0.35540605 -0.18370268 -0.65729636 0.17141484 0.33174515 0.017780036 0.5655419
0.13009441 0.062699355 0.23541147 0.14513782 0.3435761 0.57198036 0.27058935 0.4374909
-0.14710198 0.45359325 -0.03790582 0.58306795 0.7103657 0.46378615 0.11167139 0.378776
0.25152346 -0.42022678 -0.22005686 0.027061712 0.12823087 0.8723667 -0.49608138 0.788844
0.5653775 -0.4470636 0.46398008 0.1804301 0.4860372 0.40169817 0.7418726 0.78879017
0.25387853 0.60271925 0.4339068 -0.05237269 0.5221731 -0.2877755 0.6340783 0.45782316
0.39803243 -0.0870201 -0.03356573 -0.3697877 -0.10473395 -0.5009143 -0.075188026 0.0046720738
0.14165524 -0.37504888 -0.103363335 -0.20086473 0.31246865 -0.5518927 0.6665532 -0.54421544
0.6907536 0.32933295 -0.06542126 -0.50306726 -0.4680693 0.008594168 -0.5054069 -0.59296983
-0.3356993 0.4070679 0.44427872 0.33363342 0.48312017 -0.5231857 0.49746847 -0.3706915
-0.13729583 0.0454967 -0.29711342 0.6578231 -0.33637905 -0.018033512 -0.4923275 -0.46103367
0.18330663 -0.047857504 0.1911533 0.034600005 -0.5849199 -0.025577461 0.56583506 -0.29136828
-0.104226805 0.6569106 0.72372717 0.5786473 -0.29203174 0.029676575 0.6457526 -0.41535124
00000000: f721 00be 7b68 8abe f592 0bbf 8b19 863e
00000010: aca1 493a e469 13bc 7236 2f3f 8277 913e
00000020: 32a5 d43e 462a 3fbd 9f80 253e 1d58 bc3e
00000030: 0968 273f d8f5 db3e 89b0 26bf 46f6 a63e
00000040: 7f37 723e 313d 573e 3707 053f 2be2 1cbd
00000050: 318e b7be d1ef 55be 6ba2 24bf 9325 a9be
00000060: 5635 273f 7846 ff3e 7f07 0c3f 11b7 813d
00000070: a714 1fbf dae3 e53e fe2f 603f a468 56be
00000080: 83ae 773e 76a5 463f 6eff 193f 80fb bebd
00000090: 4570 063f 96fd 643e 0ca6 c9be e50f b53e
000000a0: a3ca d2be 2e4e 2f3f 7cda f0bd e07d 54be
000000b0: 2b85 2a3d 4be9 8cbe ffe5 853e 7641 4f3e
000000c0: 46a4 f7bc d377 9fbd 5ae0 313f 9673 b33d
000000d0: babf f13d 23b2 86be bfa6 c6bd 8e0c 11bf
000000e0: ccc6 33be 3dc5 273f e7ea bfbb baef a73e
000000f0: 9fc6 663d 4fec 1c3f f4ac 2c3f 0f79 8fbe
00000100: ac4b d63e 5a76 173e a1c6 99be 987f 313e
00000110: d0d9 fb3e 0bf1 00be cc87 dbbe 60a0 29be
00000120: 7964 14bf 59d0 c33e e945 c6be b307 2bbe
00000130: 09e4 fd3e 9f85 f43e 2caf 10bf 9ceb 363f
00000140: 5cd3 30be f71f c93d 06ea 2bbe 1c50 0a3e
00000150: 1c33 4dbf 7f51 7c3e e8a2 e23e 7732 d73e
00000160: 01a1 ef3e ae08 bfbe aa17 343f 5251 3f3f
00000170: c8fe 7abe 76b8 9c3e a256 193f 7af7 eb3d
00000180: 6f75 a5be 8bd1 d73e 715c 00bf e346 a8bd
00000190: b57c 2cbd d247 da3e 02b0 2d3f d2e6 213f
000001a0: 3d1b c93e e412 4cbf 390b 333f ef20 373f
000001b0: e7e7 133f fbd0 86be 69a9 a03e 94ca fc3e
000001c0: 0f03 36be 51a0 02be a8cd 233f de16 f9bd
000001d0: 36eb 563f 67f1 0b3f cb5c 11bf 74bc d2be
000001e0: a71d 75bd 3b77 a3be e1f1 f5be 2e17 15bf
000001f0: 3c11 3c3d f1f5 68be 2694 d1be 0682 ce3d
00000200: 3ea6 82be 3a93 37be 6166 0a3f fc5b e4bd
00000210: 7aec 353f dcf7 623e ffa9 28bf 9427 e43e
00000220: ef48 9a3d 6c7f 063e c615 833e 7cdd 8a3e
00000230: 7652 a0bc 84f9 6d3d 6283 3c3e 057b 963e
00000240: 5e01 593f 4bf5 32bf f5c5 17bf c3e2 e7bd
00000250: 4f46 1dbf 387b 1bbf d6e6 103f ad07 ec3e
00000260: 39dd 203f c8f7 b53e 8e1c 3cbe 9344 28bf
00000270: 5f87 2f3e 80da a93e 70a7 913c 5bc7 103f
00000280: 7837 053e 8568 803d b40f 713e 029f 143e
00000290: 35e9 af3e 4e6d 123f b08a 8a3e cffe df3e
000002a0: e7a1 16be 603d e83e 2243 1bbd f143 153f
000002b0: 87da 353f 6175 ed3e f8b3 e43d eeee c13e
000002c0: afc7 803e f727 d7be 9656 61be 86b0 dd3c
000002d0: f44e 033e 6d53 5f3f 61fe fdbe aef1 493f
000002e0: 94bc 103f 85e5 e4be cc8e ed3e abc2 383e
000002f0: ded9 f83e 62ab cd3e 5deb 3d3f 27ee 493f
00000300: 5efc 813e cf4b 1a3f 0829 de3e bf84 56bd
00000310: 23ad 053f 4f57 93be f552 223f cc67 ea3e
00000320: e8ca cb3e 9837 b2bd 387c 09bd d054 bdbe
00000330: c17e d6bd eb3b 00bf 2efc 99bd 3218 993b
00000340: 120e 113e 6806 c0be 28b0 d3bd 7caf 4dbe
00000350: e4fb 9f3e d748 0dbf 3ba3 2a3f b451 0bbf
00000360: 3ad5 303f 549e a83e 95fb 85bd 04c9 00bf
00000370: c7a6 efbe 8ece 0c3c 5962 01bf dfcc 17bf
00000380: c7e0 abbe 346b d03e 8078 e33e 00d2 aa3e
00000390: 875b f73e 7fef 05bf 30b4 fe3e 47cb bdbe
000003a0: 4797 0cbe bf5a 3a3d 401f 98be 1867 283f
000003b0: e039 acbe 04bb 93bc 5a12 fcbe 9b0c ecbe
000003c0: bcb4 3b3e 3b06 44bd b1bd 433e bcb8 0d3d
000003d0: 50bd 15bf d387 d1bc 91da 103f 392e 95be
000003e0: dd74 d5bd 4b2b 283f 2f46 393f 3b22 143f
000003f0: 2f85 95be 4a1c f33c 0b50 253f eba8 d4be

convs.0.bias f4 [16]
-0.55233324 0.6136549 0.5523776 0.02770071 0.54906356 0.3570737 -0.3545142 -0.38143224
-0.047690775 0.35679466 -0.34873065 -0.3632623 -0.31349602 -0.33272567 -0.10515933 -0.4790782
00000000: b665 0dbf 7d18 1d3f 9e68 0d3f 99ec e23c
00000010: 6e8f 0c3f 5dd2 b63e e382 b5be 164b c3be
00000020: 6757 43bd caad b63e d38c b2be 84fd b9be
00000030: 8d82 a0be 055b aabe c65d d7bd bd49 f5be

ffn.0.weight f4 [7, 16]
-0.42609963 -0.7817903 -0.31935757 0.19335467 0.4266788 0.8149856 -0.84355 0.37724477
-0.10314755 -0.7566447 -0.13097054 -0.055900186 0.64349216 0.5343514 -0.56693965 0.49775
-0.07320629 -0.110953644 -0.37210876 -0.09425853 -0.2163467 -0.5499342 0.6173745 0.3516786
0.54753745 -0.489817 0.45248163 -0.24848948 -0.11753287 -0.43023038 -0.44923028 -0.1159354
-0.29019403 0.6032821 0.5469945 -0.025469348 0.5976314 -0.048356276 -0.42729032 -0.67289025
-0.26069754 0.31270897 -0.43043247 -0.53152555 -0.4640798 -0.33555284 -0.3644954 -0.62971115
-0.19723192 0.66578573 -0.025842965 -0.09053808 -0.3510077 0.8175321 -0.23282942 0.6161551
-0.4282643 -0.33804452 0.54302734 0.38028806 -0.007512524 -0.44554347 0.59505194 0.0053811427
-0.3603872 -0.06864889 -0.22122377 0.37550735 -0.46272987 -0.62033206 0.32318088 -0.70047534
-0.22603786 0.25419456 0.32804817 0.70895594 -0.022983689 0.46893296 -0.16871358 -0.3714818
0.5982095 -0.4423673 -0.42890587 0.008128541 -0.21900494 -0.80312395 0.30848384 0.12129832
-0.24120565 0.41882464 -0.58486706 -0.6466429 0.35147965 0.16200942 -0.60499614 0.21290945
0.2993055 -0.71723956 0.13105363 -0.20726074 -0.39406794 -0.58482397 -0.59277445 -0.4613516
0.4816364 0.4956653 0.4490631 -0.6015729 -0.6223908 0.41821665 0.66082114 -0.24790974
00000000: bb29 dabe 6923 48bf d682 a3be c4fe 453e
00000010: a575 da3e e5a2 503f e5f2 57bf 3a26 c13e
00000020: 063f d3bd 78b3 41bf 241d 06be 98f7 64bd
00000030: e7bb 243f 41cb 083f f522 11bf 17d9 fe3e
00000040: 2eed 95bd aa3b e3bd 0a85 bebe 9e0a c1bd
00000050: fd89 5dbe 7dc8 0cbf 410c 1e3f 380f b43e
00000060: 6a2b 0c3f 4bc9 fabe acab e73e 0774 7ebe
00000070: 13b5 f0bd 2847 dcbe 8301 e6be 8a6f edbd
00000080: 5094 94be b270 1a3f d507 0c3f 18a5 d0bc
00000090: 5ffe 183f 3b11 46bd ccc5 dabe 8942 2cbf
000000a0: 267a 85be 641b a03e a561 dcbe 0f12 08bf
000000b0: de9b edbe 95cd abbe 249f babe c034 21bf
000000c0: 2af7 49be ef70 2a3f a0b4 d3bc 076c b9bd
000000d0: 48b7 b3be c949 513f d66a 6ebe 57bc 1d3f
000000e0: 7545 dbbe 2c14 adbe d703 0b3f 1eb5 c23e
000000f0: 9e2b f6bb 461e e4be 5355 183f 4c54 b03b
00000100: ac84 b8be ca97 8cbd 7c88 62be 8042 c03e
00000110: eeea ecbe 15ce 1ebf f777 a53e 5a52 33bf
00000120: 7876 67be ca25 823e eef5 a73e 237e 353f
00000130: 4a48 bcbc fb17 f03e 41c3 2cbe dd32 bebe
00000140: 4224 193f f77d e2be 8d99 dbbe 922d 053c
00000150: d542 60be 8899 4dbf 98f1 9d3e 416b f83d
00000160: 9dfe 76be 2f70 d63e d9b9 15bf 648a 25bf
00000170: 24f5 b33e cce5 253e 07e1 1abf ef04 5a3e
00000180: 923e 993e 039d 37bf ec32 063e 293c 54be
00000190: 46c3 c9be 06b7 15bf 11c0 17bf 4736 ecbe
000001a0: 0c99 f63e d8c7 fd3e 99eb e53e ae00 1abf
000001b0: 0155 1fbf 7e20 d63e 932b 293f 0ddc 7dbe

ffn.0.bias f4 [7]
0.036057483 -0.04068766 0.6611483 -0.48440924 -0.39592865 -0.2142672 -0.53271633
00000000: 03b1 133d 1ba8 26bd 0441 293f 7d04 f8be
00000010: 29b7 cabe dc68 5bbe 1960 08bf
