checkpoints/cora/0.1/GCN_2l/seed/1/GCN_2l_best.ckpt (torch, 95851 bytes, 6 tensors)

conv1.weight f4 [1433, 16]
0.0061199954 0.037253104 -0.021553623 -0.010750522 0.038576398 0.015470482 0.034641396 -0.019759072
0.046356954 -0.027385974 0.00552925 -0.020146456 -0.09874788 0.029417671 0.019438798 0.0059029018
-0.013903495 0.0019165833 0.0008227873 0.03495046 0.017243171 0.00843873 -0.004523828 -0.019911518
0.036165517 -0.0062267706 0.037431806 0.014210782 0.029246353 -0.009324302 0.022845326 -0.008336975
-0.028091216 0.070213884 -0.0101261735 -0.00401848 0.034357306 0.015053464 0.00023567454 -0.0069901356
-0.065268904 0.07105409 0.021105718 -0.0073268055 0.020121487 0.08559803 0.0008134188 0.0058521535
-0.09407224 0.004330209 -0.075359955 0.13216625 0.0012154456 0.10848749 -0.09393643 -0.021057086
0.14574923 0.06519672 0.080337584 0.03468584 0.23686182 -0.096798636 -0.05314631 0.024351023
0.17278689 0.17264616 0.071092784 -0.21128802 0.060855646 0.05447429 0.1377486 0.20895892
-0.16414821 0.1059483 -0.13597573 -0.114580765 -0.028164139 0.22501104 0.145289 0.025638081
0.014311653 -0.00865826 0.0052333423 0.0022423484 -0.0036214965 0.0034036676 0.012569622 0.0034380802
0.019197252 -0.016693655 -0.0029514895 0.0050219125 -0.0073634237 -0.013392347 0.0013490929 -0.0054468852
0.03933945 0.03224049 -0.0039222855 -0.014045272 -0.030065654 0.031324945 0.07857296 0.0979843
-0.08778209 0.04026508 -0.01658997 0.017979477 0.04695624 0.009386913 -0.08480513 -0.046920855
-0.023816401 0.002999954 -0.012246236 0.030094357 0.010372605 0.005982621 -0.013793031 -0.021164358
0.024398545 0.0007399599 0.020293139 0.007849318 0.023889903 -0.01595856 6.5893066e-05 -0.0072578005
0.062203754 0.03527696 -0.01651288 -0.037165236 0.0010575883 0.02790066 0.07420775 0.08829956
0.0071100867 0.030945573 -0.03313941 -0.01407469 -0.023477219 0.02484948 -0.024471916 -0.009219444
-0.012323536 0.0094573945 -0.007373012 0.0127523225 0.012029568 -0.004370041 0.008111009 -0.015891226
-0.0010534911 -0.0053173024 0.01479262 0.0060300855 -0.006310605 -0.002540866 -0.0018138745 -0.016082617
-0.005627957 -0.023630243 0.013177741 0.057865635 0.00015938054 0.0007467857 0.015854165 0.010366706
0.03644781 -0.0498651 0.035061933 0.03910187 0.02230172 -0.061086763 0.003824451 -0.03581726
-0.00029344656 0.019321088 -0.012360441 -0.03279186 -0.0074631697 0.016374724 -0.024759252 0.028661937
-0.028876621 0.056018986 -0.02292338 -0.028313087 0.01959578 0.0395716 -0.015230011 0.028377542
-0.009004967 -0.00087947724 0.01120679 0.039857868 0.037957493 -0.011177687 0.04092165 -0.052816935
0.04574441 -0.05800593 0.04184024 0.026330696 -0.052560687 -0.017144646 0.04175094 -0.022589177
-0.041612662 0.01175058 -0.020604309 0.11429848 0.046126116 -0.016539918 0.043534297 -0.073058955
0.04352292 -0.06949134 0.10049442 0.050524335 -0.021976216 -0.06059347 0.0045329407 -0.08022958
0.013732877 -0.0079570515 0.016649742 -0.017673284 0.0045937947 0.00148186 -0.005174863 -0.0020871907
0.018793957 -0.0033430632 -0.010693945 -0.012846003 -0.030195884 0.02320202 0.035378583 0.033963535
-0.03613716 0.037932754 -0.022431806 0.031099062 0.03160824 -0.010438277 0.010765352 -0.040450804
-0.005938222 -0.0018812404 0.038055394 0.009441728 -0.008821158 0.003627678 -0.00031700297 -0.022493416
00000000: 3e8a c83b b696 183d 3991 b0bc f522 30bc
00000010: 4902 1e3d e877 7d3c 23e4 0d3d c7dd a1bc
00000020: cae0 3d3d 8d58 e0bc b62e b53b 2e0a a5bc
00000030: 543c cabd 54fd f03c 1d3e 9f3c 216d c13b
00000040: 7ccb 63bc dd35 fb3a 52b0 573a 3728 0f3d
00000050: 8d41 8d3c 9942 0a3c 9f3c 94bb 7b1d a3bc
00000060: 4b22 143d f009 ccbb 1852 193d 57d4 683c
00000070: 0c96 ef3c f5c4 18bc 1f26 bb3c cf97 08bc
00000080: 8d1f e6bc 4ccc 8f3d 40e8 25bc 74ad 83bb
00000090: 3fba 0c3d cea2 763c 671f 7739 820d e5bb
000000a0: b4ab 85bd cf84 913d e6e5 ac3c b315 f0bb
000000b0: d1d5 a43c 054e af3d 9d3b 553a 6cc3 bf3b
000000c0: f2a8 c0bd 6de4 8d3b 5256 9abd 9756 073e
000000d0: 964f 9f3a b02e de3d be61 c0bd e97f acbc
000000e0: 493f 153e dc85 853d 0888 a43d bd12 0e3d
000000f0: e88b 723e 5d3e c6bd f2af 59bd cc7b c73c
00000100: 0cef 303e 28ca 303e 1899 913d e35b 58be
00000110: c543 793d 6f20 5f3d f80d 0d3e 54f9 553e
00000120: 7816 28be 6cfb d83d 393d 0bbe 52a9 eabd
00000130: 7bb8 e6bc 4b69 663e a4c6 143e f406 d23c
00000140: 6c7b 6a3c 60db 0dbc 757c ab3b 5df4 123b
00000150: a156 6dbb 1110 5f3b d1f0 4d3c 6a51 613b
00000160: 8e43 9d3c 22c1 88bc c76d 41bb db8e a43b
00000170: e048 f1bb 936b 5bbc 0cd4 b03a c97b b2bb
00000180: 6722 213d 9b0e 043d 8486 80bb 241e 66bc
00000190: 3f4c f6bc 964e 003d dcea a03d feab c83d
000001a0: 19c7 b3bd ffec 243d b0e7 87bc b249 933c
000001b0: 3055 403d 91cb 193c 50ae adbd 1530 40bd
000001c0: 9d1a c3bc e09a 443b 70a4 48bc 7188 f63c
000001d0: dcf1 293c dd09 c43b 2afc 61bc e060 adbc
000001e0: 75df c73c def9 413a cc3d a63c 6d9a 003c
000001f0: c2b4 c33c 87bb 82bc 1230 8a38 d8d2 edbb
00000200: 5dc9 7e3d 937e 103d 0546 87bc 933a 18bd
00000210: c69e 8a3a ed8f e43c 3cfa 973d 66d6 b43d
00000220: bbfb e83b 9281 fd3c 31bd 07bd 8799 66bc
00000230: 4c53 c0bc 2391 cb3c 5479 c8bc 270d 17bc
00000240: a8e8 49bc 30f3 1a3c 4f99 f1bb 1eef 503c
00000250: aa17 453c 9032 8fbb 0ae4 043c 512e 82bc
00000260: 4c15 8aba c43c aebb bf5c 723c 0698 c53b
00000270: 31c9 cebb a884 26bb 87bf edba b1bf 83bc
00000280: ba6a b8bb 3694 c1bc 74e7 573c 8404 6d3d
00000290: 631f 2739 f1c3 433a 98e0 813c 1ed9 293c
000002a0: 4c4a 153d 593f 4cbd 1a9d 0f3d 4829 203d
000002b0: 19b2 b63c 1d36 7abd a4a3 7a3b 1fb5 12bd
000002c0: bbd9 99b9 4247 9e3c 7283 4abc c250 06bd
000002d0: 9b8d f4bb 4924 863c ead3 cabc 70cc ea3c
000002e0: aa8e ecbc 2a74 653d d0c9 bbbc d9f0 e7bc
000002f0: 5487 a03c d415 223d 4c87 79bc 0578 e83c
00000300: 9289 13bc b88c 66ba af9c 373c 0142 233d
00000310: 5179 1b3d 9e22 37bc 769d 273d 9256 58bd
00000320: 7e5e 3b3d a097 6dbd ac60 2b3d 79b3 d73c
00000330: e049 57bd ee72 8cbc 0903 2b3d f00c b9bc
00000340: 0a72 2abd 8185 403c 5eca a8bc 5215 ea3d
00000350: bdee 3c3d b97e 87bc 0551 323d ef9f 95bd
00000360: 1745 323d 7a51 8ebd 05d0 cd3d 9bf2 4e3d
00000370: 7707 b4bc dc30 78bd 1089 943b 684f a4bd
00000380: dcff 603c 4b5e 02bc 0a65 883c 90c7 90bc
00000390: 8b87 963b f83a c23a e691 a9bb 40c9 08bb
000003a0: c9f5 993c 4b17 5bbb a835 2fbc 0b78 52bc
000003b0: 5c5d f7bc 2a12 be3c 22e9 103d 591d 0b3d
000003c0: 8f04 14bd 605f 1b3d e8c2 b7bc 76c3 fe3c
000003d0: a477 013d 4f05 2bbc 2961 303c beaf 25bd
000003e0: 6b95 c2bb f493 f6ba f9df 1b3d 7ab1 1a3c
000003f0: 9e86 10bc 56be 6d3b 6b33 a6b9 1d44 b8bc

conv1.bias f4 [16]
0.24985734 0.24054994 0.32315832 0.20124196 0.21635677 0.2557312 0.28292271 0.26330975
0.21695292 0.23110037 0.21011801 0.22692108 0.29184464 0.21870019 0.3218913 0.24403434
00000000: 9ada 7f3e b952 763e 0275 a53e 5f12 4e3e
00000010: a18c 5d3e 33ef 823e 3fdb 903e 89d0 863e
00000020: e828 5e3e 93a5 6c3e 2d29 573e 005e 683e
00000030: a96c 953e f1f2 5f3e f0ce a43e 23e4 793e

convs.0.weight f4 [16, 16]
0.43807045 -0.48185927 0.30900553 0.7602886 0.002063337 0.33277425 0.1881139 0.513609
0.6971276 -0.5445457 0.2513368 0.04345929 -0.30856973 0.032020222 -0.19256036 -0.43170902
0.38698938 0.66883814 0.08366129 0.11276562 0.0013469781 0.040417913 -0.13131338 -0.47699425
-0.76139855 0.4896196 0.85808295 0.6134064 0.2848586 -0.3758062 0.62518245 0.6829712
-0.21168868 -0.719143 -0.22601493 0.1998164 9.661684e-06 0.22089292 0.5195204 0.6317016
1.1166605 -0.03156004 -0.6681597 -0.09769038 -0.14324646 0.29148018 0.48212022 -0.6530521
-0.60372114 0.67990357 -0.08113914 -0.5829051 -0.0017073369 0.43359467 0.5409675 0.28368056
-0.30029523 0.40931675 -0.21892463 -0.10921077 0.04358307 0.54659873 -0.32582366 0.69712377
0.54896486 0.51454824 -0.39174688 -0.038659006 0.0001504055 0.11517734 0.36010578 -0.4340995
-0.6797285 0.69363225 0.22281936 -0.23934343 -0.058328487 0.23116678 0.3744897 0.5544436
0.6783261 0.7136763 0.6830777 0.33203486 0.0010812834 -0.26099634 -0.025896149 0.415028
0.11125202 -0.0004937177 0.09428907 0.6736622 0.7143057 0.1824955 0.04697568 0.30677804
-0.12906225 -0.073853314 0.27788517 0.58801687 0.00062465324 0.52062094 0.74612373 0.49612445
-0.5092669 0.39886478 0.18189381 0.3738192 -0.67782265 -0.07642331 0.1928446 0.45840773
0.22665605 -0.4640318 0.5590948 0.7319548 0.0039763413 -0.006189904 -0.51877725 -0.022391783
0.8303773 -0.49601462 0.578003 0.71355766 0.25672346 -0.5183863 -0.62503 -0.30012
0.722313 0.6659049 0.38238573 -0.5820013 6.3276166e-05 0.43109402 0.7758566 0.25525567
-0.42520913 -0.07090088 -0.44208035 -0.57802814 0.67505413 0.5067892 -0.6265298 -0.49319685
0.14217539 0.18879417 -0.17318049 -0.18458624 0.0014651038 -0.8000761 -1.1058123 -0.4533745
0.62040573 -0.32596987 0.72574425 0.33297145 0.60312086 -0.3626554 0.67053 0.27902788
-0.22892027 0.58989507 -0.45410463 -0.49861896 -0.0012474448 0.40937856 0.2505564 0.35880548
-0.5710217 0.5335758 0.07891755 -0.366614 -0.19539708 0.4372698 0.47420835 0.58834136
-0.50633115 0.16776572 0.13176198 0.20115028 -0.0004955599 0.15049507 0.56501395 0.17947255
0.15056537 0.21632849 -0.25863853 -0.082735784 -0.50179183 0.7310748 -0.36907968 0.37717378
-0.46983695 0.43647656 0.59167916 0.03796889 -0.0015842309 -0.11896334 -0.9274645 -0.07966733
1.0893914 0.39289048 -0.14405526 0.39405662 0.6891459 0.81889147 0.12181034 -0.43693012
0.6220219 -0.40581357 -0.22849433 0.13590096 0.004873819 -0.6550903 -0.15968777 -0.5579097
0.33546305 -0.13243075 0.44399437 -0.014027522 0.30100086 -0.58450985 0.7541764 0.5940663
0.31686026 -0.48065126 -0.5995839 -0.23803203 -0.00021762867 0.42499095 0.91301006 -0.39919308
0.65381104 -0.105525896 -0.42631188 -0.6801477 0.18823716 0.5670886 0.5298995 -0.3320057
0.63493407 -0.417465 0.047399502 -0.36206117 0.0003356022 -0.54758304 -0.14953952 -0.36299387
1.0641203 -0.65874416 -0.4695912 -0.20887272 0.49100572 -0.2495946 0.37519303 -0.686028
00000000: c54a e03e 42b6 f6be f935 9e3e 46a2 423f
00000010: 0d39 073b 6361 aa3e eea0 403e e17b 033f
00000020: f476 323f 5967 0bbf 38af 803e 5e02 323d
00000030: dafc 9dbe a327 033d 8b2e 45be f708 ddbe
00000040: 7923 c63e fa38 2b3f 9c56 ab3d a9f1 e63d
00000050: 168d b03a 418d 253d 0477 06be 9738 f4be
00000060: 04eb 42bf 6caf fa3e 53ab 5b3f 3408 1d3f
00000070: fdd8 913e ac69 c0be f50b 203f 33d7 2e3f
00000080: ebc4 58be c119 38bf 7570 67be ac9c 4c3e
00000090: 9e18 2237 c131 623e 4aff 043f 32b7 213f
000000a0: bbee 8e3f 1a45 01bd 840c 2bbf e511 c8bd
000000b0: 33af 12be e43c 953e 76d8 f63e 6c2e 27bf
000000c0: 788d 1abf 290e 2e3f 472c a6bd 4539 15bf
000000d0: b8c8 dfba 1f00 de3e d97c 0a3f 943e 913e
000000e0: 4cc0 99be f791 d13e c72d 60be e5a9 dfbd
000000f0: 2984 323d e5ed 0b3f 5cd2 a6be b476 323f
00000100: f688 0c3f 6fb9 033f 0c93 c8be e858 1ebd
00000110: 2bb6 1d39 19e2 eb3d c95f b83e 4a42 debe
00000120: b002 2ebf e291 313f c22a 643e 7216 75be
00000130: dae9 6ebd fcb6 6c3e 1dbd bf3e 04f0 0d3f
00000140: c7a6 2d3f 7db3 363f 2ede 2e3f 7900 aa3e
00000150: dab9 8d3a 50a1 85be 2924 d4bc 8d7e d43e
00000160: 19d8 e33d d56c 01ba a11a c13d 2075 2c3f
00000170: bddc 363f 1ae0 3a3e 9269 403d 0312 9d3e
00000180: e528 04be 6840 97bd f746 8e3e 4688 163f
00000190: c5bf 233a 6a47 053f f701 3f3f 0604 fe3e
000001a0: 515f 02bf 0138 cc3e 5f42 3a3e 3b65 bf3e
000001b0: c985 2dbf d383 9cbd 0e79 453e 6bb4 ea3e
000001c0: 8618 683e 9395 edbe d620 0f3f 6461 3b3f
000001d0: f84b 823b aed4 cabb 96ce 04bf f96e b7bc
000001e0: 9b93 543f a1f5 fdbe 01f8 133f b7ab 363f
000001f0: 4271 833e f7b4 04bf f701 20bf 54a9 99be
00000200: 81e9 383f be78 2a3f 10c8 c33e 0afe 14bf
00000210: 22b3 8438 5bb8 dc3e 8a9e 463f dfb0 823e
00000220: 03b5 d9be 7b34 91bd 5b58 e2be a7f9 13bf
00000230: 59d0 2c3f f0bc 013f 4264 20bf 4c84 fcbe
00000240: 6d96 113e 4253 413e 3a56 31be 2d04 3dbe
00000250: ba08 c03a cad1 4cbf 428b 8dbf b420 e8be
00000260: e9d2 1e3f 86e5 a6be 60ca 393f 3c7b aa3e
00000270: 2166 1a3f f8ad b9be dba7 2b3f bedc 8e3e
00000280: 136a 6abe 5d03 173f 6780 e8be fc4a ffbe
00000290: 4d81 a3ba 119a d13e ee48 803e 5ab5 b73e
000002a0: 7a2e 12bf 6c98 083f 869f a13d d5b4 bbbe
000002b0: 2c16 48be d4e1 df3e 70cb f23e 8a9d 163f
000002c0: eb9e 01bf c7ca 2b3e 9dec 063e 57fa 4d3e
000002d0: 76e8 01ba 611b 1a3e c1a4 103f a7c7 373e
000002e0: cf2d 1a3e 3785 5d3e 456c 84be 6171 a9bd
000002f0: 6e75 00bf b827 3b3f 03f8 bcbe ec1c c13e
00000300: 788e f0be db79 df3e 4978 173f 4485 1b3d
00000310: f8a5 cfba 0da3 f3bd 506e 6dbf a028 a3bd
00000320: 2d71 8b3f f128 c93e 3983 13be cac1 c93e
00000330: de6b 303f dfa2 513f b377 f93d 4eb5 dfbe
00000340: d43c 1f3f ccc6 cfbe 6bfa 69be 9f29 0b3e
00000350: 8fb4 9f3b ffb3 27bf 3185 23be 2cd3 0ebf
00000360: d0c1 ab3e ed9b 07be 3b53 e33e b1d3 65bc
00000370: c91c 9a3e 70a2 15bf b411 413f bb14 183f
00000380: 823b a23e ec17 f6be 557e 19bf abbe 73be
00000390: 4033 64b9 6a98 d93e 07bb 693f 0963 ccbe
000003a0: 2960 273f f61d d8bd 8d45 dabe 291e 2ebf
000003b0: 3ec1 403e b82c 113f 7ea7 073f a7fc a9be
000003c0: 0a8b 223f f9bd d5be fb25 423d 1560 b9be
000003d0: c4f3 af39 672e 0cbf e320 19be 55da b9be
000003e0: 1835 883f 75a3 28bf 426e f0be bbe2 55be
000003f0: 1a65 fb3e ba95 7fbe 4d19 c03e 889f 2fbf

convs.0.bias f4 [16]
0.11742689 0.09218303 0.11545079 0.19639413 0.00022561243 0.20138264 0.6089381 0.22341663
-0.016900485 0.16444169 0.07229407 0.08903056 0.028611494 0.17955297 0.09172941 0.04131054
00000000: 827d f03d 75ca bc3d 7771 ec3d 8b1b 493e
00000010: 6092 6c39 4037 4e3e 5ee3 1b3f 54c7 643e
00000020: e372 8abc 6763 283e ea0e 943d a755 b63d
00000030: a762 ea3c bcdc 373e a1dc bb3d 3e35 293d

ffn.0.weight f4 [7, 16]
0.255658 -0.44302538 0.10979853 0.5708418 0.0015649789 -0.44133633 -1.1816108 -0.4518465
1.0372176 -0.55853987 0.549721 0.5557233 0.2696179 -0.6047143 0.09492233 -0.4208751
-0.65366423 -0.5464966 0.28995806 0.52799827 -0.001119691 0.29326472 0.082018174 0.512272
1.0473601 -0.19091843 -0.38775605 0.4248687 -0.5869958 0.36328968 -0.37529877 -0.56526256
-0.6261566 0.32241634 -0.43704155 -0.33524567 -0.007254527 0.5272781 1.1149313 0.045349408
-1.157453 0.44964507 -0.33212677 -0.5072857 -0.26471958 0.45931128 -0.11018345 0.18030411
0.49134693 -0.4353511 -0.6111841 -0.25405478 0.0008422873 -0.41725415 0.59652275 -0.63380694
0.8288438 -0.39270964 -0.54165846 -0.47660202 0.45460415 0.022877209 0.5071516 -0.3484637
-0.19207452 0.45449704 0.35307363 -0.50523365 -0.004235589 -0.22586177 -0.92411005 0.029686404
0.7325492 -0.21115437 -0.37133563 0.085970074 0.6345891 0.52366 -0.46178862 -0.5538036
0.40930837 0.1392671 0.4007702 0.32783043 0.0038637468 0.3058486 0.6200359 0.56852925
-0.9768897 -0.556377 0.21750194 0.26211858 -0.1014755 -0.4908671 -0.6808783 -0.27497262
-0.2538346 0.5185815 -0.12587905 -0.20105593 0.00090961484 -0.52784634 -0.8692477 -0.60070056
-1.1525495 0.31300947 0.7696849 0.4736198 0.16210681 -0.2898929 0.3663791 0.6590923
00000000: 9be5 823e 39d4 e2be 0dde e03d b022 123f
00000010: fa1f cd3a d6f6 e1be 063f 97bf 6d58 e7be
00000020: 8cc3 843f 78fc 0ebf 84ba 0c3f e243 0e3f
00000030: 5b0b 8a3e 8ece 1abf a366 c23d f17c d7be
00000040: 8a56 27bf 34e7 0bbf 6275 943e e52a 073f
00000050: 98c2 92ba cb26 963e 25f9 a73d 4224 033f
00000060: e50f 863f 1f80 43be f687 c6be 6488 d93e
00000070: 5b45 16bf 1b01 ba3e 2927 c0be 0cb5 10bf
00000080: cd4b 20bf c113 a53e e9c3 dfbe 52a5 abbe
00000090: 62b7 edbb b3fb 063f 12b6 8e3f 4dc0 393d
000000a0: 6b27 94bf e137 e63e 850c aabe 7add 01bf
000000b0: 5389 87be d92a eb3e dca7 e1bd a4a1 383e
000000c0: d391 fb3e 57e6 debe 9076 1cbf 7813 82be
000000d0: f2cc 5c3a 56a2 d5be b7b5 183f 2c41 22bf
000000e0: 1b2f 543f 3d11 c9be 21aa 0abf 2e05 f4be
000000f0: e0c1 e83e fc68 bb3c b0d4 013f d669 b2be
00000100: 2faf 44be d6b3 e83e 11c6 b43e fe56 01bf
00000110: b2ca 8abb 4f48 67be 7a92 6cbf e730 f33c
00000120: 5888 3b3f da38 58be b41f bebe 1411 b03d
00000130: 6e74 223f 950e 063f 8f6f ecbe 13c6 0dbf
00000140: de90 d13e 099c 0e3e c031 cd3e 64d9 a73e
00000150: ea36 7d3b 3098 9c3e acba 1e3f 228b 113f
00000160: 7215 7abf b96e 0ebf d4b8 5e3e 6834 863e
00000170: 63d2 cfbd ef52 fbbe 0a4e 2ebf 36c9 8cbe
00000180: 9cf6 81be c2c1 043f 70e6 00be 9be1 4dbe
00000190: 3873 6e3a f020 07bf 0487 5ebf 83c7 19bf
000001a0: be86 93bf c742 a03e 120a 453f 4b7e f23e
000001b0: 54ff 253e d86c 94be 0b96 bb3e 46ba 283f

ffn.0.bias f4 [7]
-0.0036838357 -0.03379322 0.15880921 0.24654566 -0.14435151 -0.26893318 -0.3546002
00000000: 826c 71bb c26a 0abd e29e 223e 7776 7c3e
00000010: e2d0 13be 9cb1 89be 288e b5be
