checkpoints/cora/0.1/GCN_2l/seed/2/GCN_2l_best.ckpt (torch, 95851 bytes, 6 tensors)

conv1.weight f4 [1433, 16]
000000 c2 7a ac bc 7d e9 60 bc 1c f0 01 3c 12 14 1c 3d
       -0.02105463 -0.013727543 0.007930782 0.038105078
000010 30 f6 b0 3c d2 e0 b6 bc 38 cd 2e 3c 96 78 33 3d
       0.021601766 -0.022324 0.010669045 0.04381617
000020 4e 91 3a 3d 04 5e 16 bd 82 68 13 bd 35 ae 0a bd
       0.04554873 -0.036710754 -0.03598834 -0.033857543
000030 a4 77 51 bb 52 c3 8b 3c 3a e0 f7 bb 07 d5 10 bd
       -0.003196218 0.01706091 -0.0075645717 -0.03535941
000040 8b 84 19 3c 0a d1 4b 3d 06 0b 40 bd 39 64 3b 3c
       0.00936998 0.049759902 -0.046885513 0.011437469
000050 bc 1b 79 3c 9e 01 d1 3b 8d 92 2a 3d bb 85 46 3c
       0.015204366 0.0063783666 0.041643668 0.012116845
000060 ec d4 a5 3c 90 64 5e 3b 4c 54 cd bb f6 8e 47 3b
       0.02024313 0.0033934452 -0.0062661525 0.0030450202
000070 e9 6e 50 3d f1 1d 81 3c 3e 45 65 3d 1c 37 21 bc
       0.050887022 0.015761347 0.055974238 -0.009839799
000080 09 4d f3 3c bf 14 86 bc 7c bc d0 3d fc 63 bb 3b
       0.02969982 -0.016367314 0.101922005 0.005718706
000090 a4 83 3e 3d 28 23 34 3d 47 c5 93 bd bd 25 25 bc
       0.04651226 0.04397884 -0.07215362 -0.010079798
0000a0 c2 ef a0 3b f3 ab 90 3d a0 38 f7 bc cf fc 95 bc
       0.004911394 0.07064047 -0.030178368 -0.018309025
0000b0 51 1a 99 bc 1f 1e 8f 3d 56 c4 4e bd b4 72 58 3d
       -0.018689306 0.06988167 -0.05048021 0.052843764
0000c0 f8 6b 4b bd 20 44 58 3d 11 31 48 bd c0 e1 48 bd
       -0.049663514 0.052799344 -0.04887492 -0.049043417
0000d0 8d 13 71 3e e9 b5 e5 3c d4 c3 47 3e 9b e2 49 bd
       0.23542614 0.028040843 0.19508296 -0.049288373
0000e0 95 62 df bc 58 f4 77 3d e2 cb 89 3c e9 7e 0b bc
       -0.027268687 0.06053576 0.016820852 -0.008514144
0000f0 1d e2 03 3e 2f d5 b9 bd 31 5f 08 bd 62 f1 cd 3c
       0.12879224 -0.09073865 -0.033293907 0.025139514
000100 e8 8d ba 3d 99 d0 47 3e ed 4a a1 bd 95 80 22 3e
       0.09109098 0.19513167 -0.07875619 0.15869363
000110 dd c9 a1 be 0b 63 84 bd c9 c6 03 be a6 68 4f 3e
       -0.31599322 -0.064642034 -0.128688 0.20254764
000120 62 6a 09 bd bb b5 3f 3e e6 6c 1d 3e a9 8b 60 3e
       -0.03354872 0.18721668 0.15373573 0.21928276
000130 dc 05 3f be 57 d9 8a 3e a4 2e 83 3e 92 8b a6 3d
       -0.18654579 0.27118942 0.2562152 0.0813209
000140 e5 d4 27 bb 89 de 82 3b db bd 6c bc 46 63 ba 3a
       -0.0025609073 0.0039938134 -0.014449562 0.001422026
000150 62 c5 7b bb 8c 1f 96 bb 90 07 85 3c a5 35 98 3b
       -0.003841721 -0.0045813974 0.016238958 0.004645067
000160 92 c1 59 3b c0 d2 46 bc bf e5 fd 3b 69 5c af 3b
       0.003322695 -0.012135208 0.007748335 0.0053515923
000170 6c e7 f2 3b 23 44 7b bc e6 fb e3 3b 26 df 95 bb
       0.0074128415 -0.015336069 0.006957519 -0.0045737205
000180 0a 37 d7 bc 48 a6 b4 bd 35 bf 15 3e 7a f9 22 bd
       -0.026271362 -0.08820778 0.14623721 -0.0397887
000190 1b ed 29 3d 11 91 bf 3d c8 88 7f bd e0 c5 2f 3c
       0.041485887 0.09353841 -0.062386304 0.010728329
0001a0 3b b3 65 bc d6 9e 92 3d 12 71 b4 3c bc d1 c4 3d
       -0.014019783 0.07159202 0.022026572 0.09610316
0001b0 7f 0c af bc 34 6e 8a bd 02 c9 04 be 6c 80 18 3e
       -0.021368263 -0.06759301 -0.12967303 0.14892739
0001c0 7b 2d 11 bc 91 20 a4 3c a6 96 0a bd 05 74 0d bb
       -0.008860941 0.02003506 -0.033835076 -0.0021584046
0001d0 ea 77 e2 3c 26 7d 21 bb 33 3a 3f 3d 50 55 24 3a
       0.02764507 -0.0024641245 0.046686362 0.0006268816
0001e0 ec 82 c8 3a d0 68 97 bb fd bb a1 bb 72 20 16 bc
       0.0015297807 -0.004620649 -0.00493574 -0.009163009
0001f0 a1 3e f0 3c 00 c1 f1 bb d8 40 68 3c 2f c8 7e bc
       0.029326739 -0.0073777437 0.014175616 -0.015550657
000200 05 98 0e bd 1c 13 28 3d bf ff 41 bd 5e 1e 8c 3d
       -0.034812946 0.04103385 -0.04736304 0.068417296
000210 b9 ab 35 bd fa f8 5f bd 15 de 57 3d 8a 19 df 3d
       -0.04435322 -0.054680802 0.05270203 0.10893543
000220 d0 6a 13 3d 3c 48 17 bd c3 77 30 3d 36 4e b7 3d
       0.035990536 -0.036934122 0.043082964 0.089504644
000230 e9 0e dd bc da 93 fa 3b b3 4c e9 3d 60 7d 3b bc
       -0.026984649 0.00764702 0.11391582 -0.011443466
000240 7f 10 f2 bb 3c f9 59 bc 83 ce 55 3c 93 e9 72 bc
       -0.0073872204 -0.013304051 0.0130497245 -0.014826196
000250 0e 0c 92 3b 38 a8 7d 3c d1 20 ab 3b c7 53 e3 3b
       0.0044570034 0.015482001 0.005222418 0.0069374773
000260 be 54 da 3c 60 b8 70 bb 04 52 c1 bc 85 7e 6b bc
       0.026651736 -0.003673099 -0.023598678 -0.014373426
000270 46 25 30 3c 23 ac d9 3a a7 a9 45 bc 83 6f b2 ba
       0.010751074 0.0016607087 -0.012064374 -0.0013613555
000280 ca 01 da bc eb c2 15 3d 4c 31 bd bd ca 46 13 bd
       -0.026612181 0.03656284 -0.09237918 -0.03595618
000290 7c ce 2d bc 21 8e eb 3b 89 c1 f3 3d ec 7c 24 3c
       -0.010608312 0.007188574 0.11902148 0.010039549
0002a0 9f 77 14 3d a6 11 46 bd b3 73 84 3c ff 4b 1c 3b
       0.036246892 -0.048356675 0.016168451 0.0023849008
0002b0 cd eb ab 3d 55 02 75 bd e0 9b 6f 3d a6 7a e6 bc
       0.08394585 -0.059816677 0.058498263 -0.028134655
0002c0 cb 09 32 bc f8 a1 a7 bc 84 4e 3e 3d 50 66 44 3c
       -0.010866593 -0.020462975 0.046461597 0.011987284
0002d0 81 c0 32 3d 9c 2c 74 bb b3 f3 ec bc a2 a7 b4 3b
       0.043640617 -0.0037258035 -0.028924799 0.0055131475
0002e0 28 ed a3 bc 74 a5 17 3d 38 21 2b 3b f4 87 c2 3b
       -0.020010546 0.037023023 0.002611233 0.005936617
0002f0 2f 72 12 bd 8c ce 8b 3c 11 1c 36 bd 7b 20 f7 3c
       -0.035753425 0.017066263 -0.04446036 0.030166855
000300 3c 88 41 3c 7c ff 07 3c ec 12 c7 bc ec 61 ed bb
       0.011812266 0.008300658 -0.024301015 -0.007244339
000310 0e b9 70 bc dc 00 a6 3c 98 1f 18 3d df 4b 10 3c
       -0.014692558 0.020264082 0.037139505 0.008807152
000320 2c e2 9c 3d a4 02 6a bd b2 c6 2b bd c6 c8 59 bd
       0.07660326 -0.057131425 -0.041937537 -0.053169988
000330 bc d0 7d 3d d6 ca 2d 3b e2 6e a8 3c 7a 95 55 bd
       0.061966643 0.0026518605 0.020560686 -0.052144505
000340 d1 4e a4 bc 1e 43 0b 3d 8e 44 ac bd 8f d4 12 bd
       -0.020057114 0.033999555 -0.08411513 -0.035847243
000350 12 51 13 bd a4 a6 55 3c 33 85 db 3d cf ca cc 3c
       -0.035965987 0.0130402185 0.10718765 0.02499905
000360 72 14 b9 3d d9 32 8d bd eb da 02 bd 2a fe ac bc
       0.09037103 -0.06894464 -0.031947058 -0.021117289
000370 cf e8 e9 3d 5d ea 11 bd e9 de b4 3d dd 0f 6d bd
       0.11421358 -0.035623897 0.08831579 -0.057876457
000380 09 a9 c1 3c ed 7f 56 3c e8 67 9f 3b 7f 5a 0d 3d
       0.023640173 0.013092023 0.0048646815 0.034510132
000390 af d0 66 3c fa 1c 54 bc cb 5d e8 bc cf cf 35 bc
       0.01408784 -0.012946362 -0.028365036 -0.011096909
0003a0 2a ee 35 bc 21 25 04 bb 5b 66 06 bb 8e be 98 bc
       -0.011104146 -0.0020163732 -0.0020507786 -0.018645551
0003b0 02 e0 ac bb e7 a6 d6 3c 7b de 86 ba ab fb 72 bc
       -0.0052757272 0.026202632 -0.0010289693 -0.01483051
0003c0 d7 7d 06 bc c6 81 87 bc 29 1f 8f 3c 9c b9 b4 bc
       -0.0082087135 -0.016541373 0.017470913 -0.022061162
0003d0 ec 5b 6d 3b 2f 37 bf 3c 08 d3 cf 3b 2d f4 65 3c
       0.003621812 0.023341743 0.0063422956 0.014035267
0003e0 4e 61 60 3d f2 06 0b bc 26 ed 4d bd 9d 78 0a bd
       0.054780297 -0.008485543 -0.05027499 -0.033806432
0003f0 c5 78 94 3c 80 0a 87 3c f1 a4 12 bc 67 fe 5b bc
       0.018123994 0.016484499 -0.008950458 -0.013427353

conv1.bias f4 [16]
000000 cb b9 b3 3e 7c 8d 9b 3e ce a0 47 3e 5f 73 99 3e
       0.35102686 0.30381382 0.19494936 0.29970834
000010 52 6c 76 3e 31 63 9d 3e 02 04 86 3e 60 d0 61 3e
       0.24064758 0.3073974 0.26174933 0.22052145
000020 aa d5 8c 3e 0a bb 9b 3e 82 0a 8b 3e e8 f4 80 3e
       0.27506763 0.30416137 0.27156454 0.2518685
000030 2b cd 76 3e fe f8 8f 3e 78 e9 a4 3e c8 89 52 3e
       0.24101703 0.28119653 0.32209373 0.20560372

convs.0.weight f4 [16, 16]
000000 99 10 38 3f 3e 5b 31 3f d2 d2 6a 3e fa a9 62 bc
       0.71900326 0.6927985 0.22931984 -0.013834471
000010 90 c8 30 3f 26 36 5b 3e 33 ee 0f bf 7b 2f 1b bf
       0.69056034 0.21407375 -0.5622284 -0.60619324
000020 98 bd 8f be d6 16 a8 3d 6b 34 0a 3d 36 05 2c 3f
       -0.28074336 0.082074806 0.033741396 0.6719545
000030 25 63 90 3c 81 f6 8d bf 93 40 10 3f 94 34 03 bd
       0.0176254 -1.1090852 0.5634853 -0.032032564
000040 f8 f9 f1 3e 34 41 c8 3e da 09 15 3e c2 75 25 3e
       0.47261024 0.39112246 0.1455454 0.16158202
000050 e2 4a af 3e db fb 44 3e 4b a0 fa be a2 79 29 3f
       0.3423682 0.192367 -0.4895042 0.6620122
000060 3f 12 a5 3e 65 20 2a 3f 23 b6 37 3e b6 e2 e2 3e
       0.32240483 0.6645568 0.17940573 0.44313592
000070 95 b7 43 bd 90 08 9c be 79 a2 02 3d 88 cd 09 3f
       -0.0477825 -0.30475283 0.031893227 0.5382924
000080 06 6d a0 3e 95 ea 9d 3e ae a1 b7 be 34 6c 14 3f
       0.31333178 0.30843034 -0.3586554 0.57977605
000090 a6 0b 46 be 95 93 1a bf bf 46 96 3e f7 ef 21 bf
       -0.19340381 -0.6038144 0.2935085 -0.6325678
0000a0 71 f8 bb be 59 29 bb be 3b 62 a0 3e 65 ad 45 be
       -0.36712983 -0.36554983 0.31324944 -0.19304426
0000b0 a2 3a ca 3e 23 3d be 3e 56 99 4c 3f 2e e8 38 bf
       0.39497858 0.3715602 0.7992147 -0.7222928
0000c0 20 6d 16 3f 15 cb f2 3e 2d 00 0c be d7 81 13 3f
       0.5876026 0.47420564 -0.13671942 0.57619995
0000d0 9b 22 ef 3e 8c 3f 04 bf 8d 17 19 be db d4 ed 3e
       0.4670609 -0.51659465 -0.1495039 0.46451458
0000e0 91 cf 94 3e 50 43 06 bf 59 58 65 be 55 47 93 3e
       0.2906461 -0.5244646 -0.22396983 0.2876536
0000f0 c2 7e da be 58 b7 be 3e 39 9d ab 3c fa e7 1d 3f
       -0.42674834 0.37249255 0.020948993 0.61682093
000100 1d fb 31 bc 97 5b 26 3f a1 1e 39 3f e6 84 87 3e
       -0.010863093 0.64983505 0.7231236 0.2646858
000110 b3 55 60 bd f3 ea 1e bf d9 b1 7a 3e cb bc 0e 3f
       -0.05476923 -0.62077254 0.24481906 0.55756825
000120 d0 25 dd 3e 7f af 12 bf 20 43 55 3f c3 9c 8f 3d
       0.4319291 -0.57299036 0.8330555 0.07012322
000130 4a 59 2a 3f f9 ea 90 3f 97 d8 0a bf 1e e2 a4 be
       0.66542494 1.1321708 -0.5423674 -0.32203764
000140 a8 84 8a 3e 5e 04 1b bd 50 ae 9a 3e 0d f8 37 3e
       0.27054334 -0.03784596 0.30211115 0.17965718
000150 27 53 81 bd 48 92 fb 3e 35 b8 63 3e ce 3a fa be
       -0.06314688 0.4913504 0.22238238 -0.4887299
000160 65 5d a7 bd 93 ad 1d 3f 5b 08 d1 3e 18 75 08 be
       -0.081721105 0.6159298 0.40826687 -0.13325918
000170 4a bc ea 3e 46 6f e3 be 73 8d d7 3e 99 84 f0 be
       0.45846778 -0.44420832 0.42100105 -0.46976164
000180 ba ed 22 bf 22 9d 3d bf 56 af c9 3e 3e 11 28 bf
       -0.6364399 -0.7406789 0.39391583 -0.6565131
000190 d2 3d 64 be 35 d6 35 3f 57 37 9b 3e ef e3 03 3f
       -0.22289208 0.7102998 0.30315658 0.51519674
0001a0 d8 aa 10 3f 10 42 94 3e f6 b5 35 3e 0e d3 34 3e
       0.56510687 0.28956652 0.17745194 0.17658636
0001b0 8a 25 7b 3e d5 7a 42 3f 33 fa 43 bf 16 9d 18 3f
       0.24526039 0.75968677 -0.7655365 0.59614694
0001c0 fd 12 36 bf cd 1f c0 be 67 b5 76 be 33 7f 0d 3f
       -0.71122724 -0.37524262 -0.24092637 0.55272216
0001d0 bd b8 b9 be 4c 58 5e be 14 d0 27 3f b2 0b f7 3e
       -0.36273757 -0.2171337 0.6555188 0.4825111
0001e0 23 66 e1 3e 5d 8f 0a be bf 07 83 be 14 1e ac be
       0.44023237 -0.13531251 -0.25591847 -0.33616698
0001f0 7f 66 02 bf f3 35 8b 3f cf 72 19 3e 25 d7 26 3f
       -0.50937647 1.0875839 0.14985202 0.65172035
000200 54 76 02 bf e4 5b 42 bf e0 7f e1 3e 53 ea fe 3e
       -0.50961804 -0.75921464 0.44042873 0.4978815
000210 e2 46 16 3f 63 a6 b4 3e 51 39 40 3f df 99 5e bf
       0.5870191 0.35283193 0.7508746 -0.8695354
000220 03 12 8f 3e 29 72 a5 3e 2f b4 ec 3d 72 f2 f1 bd
       0.2794343 0.3231366 0.11557805 -0.11813821
000230 72 40 3d be ee 8d 24 3e 6e 7c c3 3e 24 7c 09 3f
       -0.18481615 0.16069767 0.3818087 0.5370505
000240 c8 dd dd 3e f9 24 2f 3f 20 7a 91 3e 49 39 6e 3e
       0.43333268 0.6841579 0.28413486 0.2326404
000250 64 5c 8c be 86 97 97 3d 7a f5 96 bb 3c 6f 38 3f
       -0.27414238 0.07401948 -0.0046069 0.7204473
000260 c9 81 10 bf 2c 39 62 be d8 dc 5d 3e f0 55 e7 ba
       -0.56448036 -0.22092122 0.21666276 -0.0017649513
000270 d7 71 0d 3f 93 b2 f3 3e 6d 84 15 3f 66 8d bf be
       0.5525183 0.4759718 0.5840519 -0.37412566
000280 08 ff 26 3f cf 00 b0 3e 94 bc 24 bf 26 71 32 bf
       0.65232897 0.34375617 -0.6435025 -0.697039
000290 e7 aa 1c be 9c 36 97 3e fb f2 02 bf 65 27 23 3f
       -0.15299569 0.2953385 -0.5115201 0.63731986
0002a0 18 3e 36 3b 12 01 db be e4 03 0b bf 9b fe 95 be
       0.0027808007 -0.42774254 -0.5430281 -0.2929581
0002b0 6f d4 b7 3d df e0 94 3d 1c eb 7d bd ab 94 b0 3e
       0.08976065 0.07269453 -0.061991796 0.34488425
0002c0 88 9b ab 3e 92 ec 05 3f 22 e8 cf be a0 1b 21 bf
       0.33517098 0.523141 -0.4060679 -0.6293278
0002d0 33 69 12 bf 6c 49 69 3e 8b ab 0f bd e4 b6 01 3f
       -0.5719177 0.22781914 -0.035075705 0.50669694
0002e0 0a 6d fa 3e b1 d8 4a be 9c e3 ef be 28 9d 25 bf
       0.48911315 -0.19809224 -0.4685334 -0.64692926
0002f0 8c 2a bc bd 86 ac 1b 3f 4a 3f f5 3e 0c 58 c0 3e
       -0.09187803 0.60810125 0.47899848 0.37567174
000300 fa 0c 24 3e 24 95 b2 be 1d 44 21 3f f8 bb da bd
       0.16020575 -0.3487941 0.6299456 -0.106803834
000310 fd 4a 26 3e cc b8 3c 3f e3 70 dd bd cb b9 20 bf
       0.16239543 0.7371948 -0.10812547 -0.627835
000320 38 82 b5 3e bf 23 0f 3f 44 10 06 3f d7 11 03 3f
       0.35450912 0.5591392 0.5236857 0.51199096
000330 44 18 cc 3e d0 6f 2d bf a1 6b 50 be c2 02 c1 3e
       0.39862263 -0.6774874 -0.20353557 0.37697417
000340 6c 93 4a 3e 8a 11 12 3f 2d 03 fd 3e 1f ae 4b 3f
       0.197828 0.5705801 0.49416485 0.7956256
000350 66 95 22 3f 4b f1 20 bf 91 18 8f 3e 54 a0 03 3f
       0.63509214 -0.62868184 0.2794843 0.51416516
000360 65 67 34 bf 05 05 8b 3e 6e 30 44 3e c5 bf da 3e
       -0.7047027 0.27152267 0.191591 0.42724434
000370 b8 0e c7 be 8c af 0d be fa 23 20 3f a3 e9 a5 3d
       -0.38878417 -0.13836497 0.62554896 0.08101203
000380 19 b0 09 bf 37 aa 25 bd 67 4b 0f 3d 92 3f a6 be
       -0.5378433 -0.040445533 0.03498402 -0.32470375
000390 ac 1c 12 3f 8a fd 2e 3f 9a e2 8e be 06 d3 f5 3e
       0.57075 0.6835562 -0.27907258 0.4801256
0003a0 96 e0 bd 3d b7 65 86 3e 0c 58 a1 be 76 f4 dc 3e
       0.09271352 0.26249477 -0.31512487 0.4315526
0003b0 34 9c 4f bf 3c 83 ef be 69 33 4d 3e b9 13 41 3f
       -0.8109772 -0.4677981 0.20039143 0.7542072
0003c0 3b f5 8f 3e f0 4e ad 3e a6 3f 14 bf e4 ca 24 3e
       0.28116783 0.33849287 -0.5790962 0.16093022
0003d0 0a eb 90 be 86 f2 15 3f bf 4b 1b 3e 0a 97 c2 3e
       -0.2830432 0.58573186 0.15165614 0.3800586
0003e0 00 e2 76 be 92 bd a3 be af fc 9e bd a5 50 c3 be
       -0.2410965 -0.31980568 -0.07763039 -0.38147464
0003f0 fa cd 25 3f 5f cf 14 3f 3f ec fc 3e e8 04 22 bf
       0.6476742 0.58128923 0.4939899 -0.63288736

convs.0.bias f4 [16]
000000 a5 e0 12 3e fd 8f 91 3d 88 55 73 3d de d8 18 bd
       0.14343508 0.07107542 0.05940774 -0.037316196
000010 d6 45 1a 3e a6 1d 74 3e ab c3 3b 3e bf 69 24 be
       0.15065703 0.23839435 0.1833636 -0.16055964
000020 35 2b 5c 3e 30 d5 56 3e a8 94 14 3e f9 da 4f 3e
       0.21500857 0.20979762 0.14509833 0.20298375
000030 a0 63 0e 3e 25 be d7 bc 31 db 43 3e f1 f7 60 3e
       0.13905191 -0.026335785 0.19126584 0.21969582

ffn.0.weight f4 [7, 16]
000000 18 77 41 3d aa d3 16 3f 7e ea 0d bf 18 48 49 bd
       0.047232717 0.58916724 -0.5543593 -0.04914102
000010 1c de 9d be 44 65 9d bd 04 e7 18 bf fd 74 fc 3e
       -0.30833519 -0.076853305 -0.597275 0.49308005
000020 aa f3 1d bf da 03 b3 be 77 57 2b bf 29 4f 9a be
       -0.61699927 -0.34963876 -0.66930336 -0.3013852
000030 99 1a 40 bf bf 3d 05 3f 03 4d 1c 3f db 81 94 3e
       -0.75040585 0.5204734 0.6105501 0.29005322
000040 38 19 1b 3f 6d 65 9f 3e 74 96 dd be cc de ca be
       0.60585356 0.3113207 -0.4327885 -0.39623106
000050 3c 4d f2 be bd 7a 00 3f a3 4e e6 be 06 88 14 bf
       -0.4732455 0.50187284 -0.4498187 -0.58020055
000060 29 19 10 bf ea d0 28 be a1 b7 16 bd 59 86 0b bf
       -0.5628839 -0.16485944 -0.036796216 -0.54501873
000070 0d 56 d1 3e 52 69 6d bf ac 0e 17 3f 97 40 ed be
       0.40885964 -0.9273883 0.5900676 -0.4633834
000080 49 04 bc be ed de fc be 27 0c c4 3e e7 b1 8e bd
       -0.3672202 -0.4938883 0.38290522 -0.06967526
000090 1b 03 e0 3e 92 75 bb 3e f4 e6 47 3d 68 5a ee be
       0.4375237 0.36613137 0.04880424 -0.4655335
0000a0 da 7a 8a bc 68 b1 13 3f bd 23 3f 3e b4 11 0b 3f
       -0.016904283 0.57692575 0.18665977 0.5432389
0000b0 23 89 b9 be 5b 95 9e bf 9d 6b 24 be 40 d1 c8 3e
       -0.3623744 -1.238933 -0.16056676 0.39222145
0000c0 a2 5e eb 3e 11 b4 f4 3e e1 83 33 3e 70 4e 0f 3f
       0.45970637 0.4779363 0.17530777 0.5597906
0000d0 e2 63 09 3f 27 29 e8 be 7d 04 0b bf 0b ec 8a be
       0.53668034 -0.45343897 -0.54303724 -0.27133211
0000e0 4e 3b 95 bf bd 01 bf be 08 b4 91 3e f6 56 0c 3f
       -1.1658723 -0.37306014 0.28457665 0.5482019
0000f0 6b 8b 79 be d7 5c 80 bf 8f 5b 4f bd 2d 89 84 be
       -0.2436959 -1.0028332 -0.050624426 -0.25885907
000100 7e 0e 2e 3d d1 30 0a 3e a3 ab 84 3e 83 22 d1 be
       0.04249429 0.13495184 0.25912198 -0.40846643
000110 6c 95 c6 be 32 38 5b 3e f0 cc 31 bf 7e ce 9d 3e
       -0.38785875 0.21408156 -0.69453335 0.30821604
000120 a8 7b 33 3e f6 34 e9 be 0a f3 b1 3e 64 94 06 bc
       0.1752764 -0.45548218 0.34755737 -0.00821409
000130 4c 1f f3 3e fd 61 d0 3e 5e dd 2a bf 3f 6e 55 be
       0.47484815 0.4069976 -0.6674403 -0.20842837
000140 4c 46 c2 be 54 85 47 bf 5b fd da be 31 d4 67 be
       -0.37944257 -0.7793782 -0.4277142 -0.22639538
000150 74 a6 87 be 00 e0 34 3d ce 14 a4 3e 4c b9 b1 3c
       -0.2649418 0.044158936 0.32047123 0.021694802
000160 81 3c 2f 3f 0b 47 e4 be 1b 0d 88 be aa 9c af be
       0.68451697 -0.4458545 -0.265725 -0.34299213
000170 35 b0 1b bf 78 9f 89 3f 61 df 0a bf cc 7f 08 3f
       -0.60815746 1.0751791 -0.542471 0.5332
000180 9d 66 ea be 9c eb 51 be 00 6f 6c 3e 83 8a fe 3e
       -0.45781413 -0.20500034 0.23089218 0.4971505
000190 59 1d ee be 0d fa 12 bf d6 a3 0e 3f b7 80 1b bf
       -0.46506765 -0.574128 0.55718744 -0.6074328
0001a0 1e ae 0e bf e2 b9 0a bf 87 27 e1 3e 6e 33 10 bf
       -0.5573443 -0.54189885 0.4397547 -0.56328475
0001b0 49 8b e5 3e 1d a5 95 3f 02 3c cc 3e 03 c0 02 bf
       0.4483283 1.1691014 0.39889532 -0.51074237

ffn.0.bias f4 [7]
000000 c0 fa 8d be ce 8b 49 3e 0f c8 87 3d e2 13 45 be
       -0.2773037 0.19682238 0.06629955 -0.19245866
000010 c0 ad 81 bd 66 48 44 bd ab 2e 3c bc
       -0.06331968 -0.047920607 -0.011485736
