checkpoints/cora/0.1/GCN_2l/seed/0/GCN_2l_best.ckpt (torch, 95851 bytes, 6 tensors)

conv1.weight f4 [1433, 16]
0	0xbca8f8dc	-0.020626478
1	0x3dcfc978	0.10145849
2	0x3d14da04	0.03634073
3	0x3d4e423b	0.05035613
4	0xbd3e4eec	-0.046461985
5	0xbcf46067	-0.029831124
6	0x3bbb4bd8	0.0057158284
7	0xbca7cf9c	-0.020484738
8	0xbb5873b9	-0.003302796
9	0xbd99046e	-0.07471548
10	0x3d5cf05c	0.053940162
11	0x3bd304c0	0.006439775
12	0x3c967dfc	0.01837062
13	0xbd5514c7	-0.052021768
14	0x3d4398c9	0.04775313
15	0x3d552910	0.052041113
16	0x3d6e59f7	0.058191266
17	0xbd1fa030	-0.038971126
18	0x3d71f066	0.059067152
19	0xbca98279	-0.020692097
20	0x35e2f320	1.6909071e-06
21	0x3cf4db4a	0.029889721
22	0x3cdd566b	0.027018746
23	0x3d63e67e	0.055639736
24	0xbcccec6b	-0.025015077
25	0xbc291dca	-0.010322044
26	0x3b10cafa	0.002209364
27	0x3ad26272	0.0016051068
28	0x3b5a32e8	0.0033294503
29	0x3d87273f	0.065992825
30	0x3cc10fc6	0.023567092
31	0x3c54e28c	0.012993466
32	0xbd7b548d	-0.06135993
33	0x3d3dc48e	0.046330027
34	0xbd54aa46	-0.051920198
35	0x3dba46d0	0.09095538
36	0x3cdf0e7c	0.027228586
37	0xbd4ba4d8	-0.049717754
38	0x3c2a6932	0.010401057
39	0xbc8edd7a	-0.017439593
40	0x3b0c107c	0.002137213
41	0x3d7be29e	0.061495416
42	0x3ad6b567	0.0016380966
43	0xbcd6ef6f	-0.026237218
44	0x3dad2a5d	0.08455346
45	0x3cefe0f3	0.029282069
46	0x3d109b2f	0.035304245
47	0xbb079335	-0.0020687107
48	0x3df5b05f	0.11996531
49	0xbdc17317	-0.0944578
50	0xbc89d159	-0.016823458
51	0xbe1a2bb2	-0.15055731
52	0xbd7ed167	-0.06221142
53	0x3ccd4463	0.025057023
54	0x3da948e7	0.08265858
55	0x3c807665	0.015681455
56	0x3d31cbdb	0.043407302
57	0x3dd4fb88	0.10399538
58	0xbd18131b	-0.037127595
59	0x3e0c7427	0.13716184
60	0x3d2c293b	0.042031508
61	0x3e2fc65b	0.1716551
62	0x3d3767ad	0.044776607
63	0x3dd8d9dd	0.10588429
64	0x3d840fb5	0.064483084
65	0xbe39a81f	-0.1813054
66	0x3e5a3f28	0.21313155
67	0x3c6c8607	0.0144362515
68	0x3e83864c	0.25688398
69	0xbd280a0f	-0.041025218
70	0xbe546e56	-0.20745215
71	0xbd2049bf	-0.03913283
72	0xbc64e829	-0.013971367
73	0x3e115b76	0.14195046
74	0x3e38b263	0.18036799
75	0x3e570eb8	0.21001709
76	0xbbcc202c	-0.006229421
77	0x3db635b1	0.088969596
78	0xbe0d073c	-0.13772291
79	0xbe6b54a9	-0.22981514
80	0x3c00604e	0.007835461
81	0x3c2f2053	0.010688859
82	0x3c5a28a7	0.013315356
83	0xbc18bfde	-0.009323088
84	0xbc0aba7b	-0.008467312
85	0x3c047e4c	0.008086752
86	0x3aa3a061	0.001248371
87	0xb9f9855e	-0.00047592347
88	0x3b0feaf8	0.002196012
89	0xbcb12ff9	-0.02162932
90	0x3c4117b7	0.011785439
91	0x3c17678d	0.009240997
92	0xbc8a348b	-0.016870758
93	0xbc6c5c66	-0.014426326
94	0x3b16f214	0.0023032473
95	0x3c21fe29	0.009887257
96	0xbde36b5d	-0.11104462
97	0x3de54991	0.11195672
98	0xbe363f29	-0.17797531
99	0x3d924ac4	0.07143167
100	0x3e2401f1	0.16016366
101	0x3d6a19f4	0.057153657
102	0x3c922210	0.017838508
103	0xbd0b72dd	-0.03404509
104	0x3d950059	0.07275457
105	0x3e0bfbde	0.13670298
106	0x3c22a287	0.009926445
107	0xbd670def	-0.056409772
108	0xbbe0bdf4	-0.0068585817
109	0xbd396926	-0.045266293
110	0xbc7eb610	-0.015546337
111	0x3c0db5c2	0.0086492915
112	0x3d01555b	0.031575542
113	0xbd02db20	-0.031947255
114	0x3ca252d8	0.019814894
115	0xbd38acb7	-0.04508659
116	0xbc690f8a	-0.014224896
117	0x3c9b837c	0.018983595
118	0x3ca172b1	0.01970801
119	0x3c8d7559	0.01726787
120	0xbc4e2158	-0.012581192
121	0xbbe8565b	-0.0070903725
122	0xbbd89378	-0.0066093765
123	0xb94376c1	-0.00018640888
124	0xbbb1d48e	-0.00542695
125	0x3d2cc93c	0.0421841
126	0x3c9f50d6	0.019447725
127	0x3cb61aea	0.02222963
128	0x3c3b8ec2	0.01144761
129	0x3c2a51d8	0.01039549
130	0x3dc29748	0.09501511
131	0xbbd8fc5c	-0.0066218805
132	0x3d3e0ee8	0.046400934
133	0xba9f2102	-0.0012140574
134	0xbd92cf20	-0.07168412
135	0x3c246f1d	0.010036257
136	0x3b699529	0.0035641885
137	0xbd0bd5ec	-0.03413956
138	0x3e000eba	0.12505618
139	0x3d9099c7	0.07060581
140	0xbd2430b3	-0.040085506
141	0xbd185c0d	-0.03719716
142	0xbc96d082	-0.018409971
143	0xbcaa8aba	-0.020818103
144	0xbca403aa	-0.020021278
145	0x3c16bed7	0.009200773
146	0xbc76ea9c	-0.015070584
147	0x3bd1a333	0.0063976287
148	0x3b14de77	0.0022715607
149	0x3b01fa16	0.00198329
150	0x3bfe80c8	0.0077668168
151	0x3c1e33a8	0.0096558705
152	0xbc842d1a	-0.016134787
153	0x3ad1b99c	0.001600075
154	0x3c3cbc9f	0.01151958
155	0xbc952afb	-0.018208971
156	0x3a8d0213	0.0010758064
157	0x3c5f6d74	0.0136369355
158	0x3c983179	0.018578278
159	0x3c875887	0.016521705
160	0x3d20695d	0.039162982
161	0xbd751230	-0.059831798
162	0x3cdc073f	0.026858924
163	0xbd4e9264	-0.050432578
164	0x3c91135c	0.017709427
165	0x3d978666	0.07398681
166	0x3c93d724	0.018046923
167	0x3da7b2f5	0.0818843
168	0xbd366ab4	-0.044535354
169	0xbc873911	-0.016506704
170	0x3c41adba	0.011821205
171	0xbbd95f56	-0.0066336794
172	0xbd8ef667	-0.06980591
173	0x3d5e38f3	0.05425353
174	0x3c4beef2	0.012447106
175	0x3ca48caf	0.020086614
176	0xbcd73b9b	-0.02627354
177	0x3d1f43da	0.038883068
178	0xbd009841	-0.0313952
179	0x3d028292	0.031862803
180	0xbc75904a	-0.0149880145
181	0xbd5735f4	-0.052541688
182	0xbb6bcec5	-0.0035981399
183	0xbd6d5584	-0.057942882
184	0x3d020ed2	0.031752415
185	0x3d1271a4	0.035752907
186	0xbc555844	-0.013021532
187	0x3cfbf2ba	0.03075539
188	0x3d563b36	0.05230256
189	0xbc9a759d	-0.01885491
190	0x3b76ef41	0.0037679228
191	0x3ad0be24	0.0015925807
192	0x3b7e6dfd	0.0038822882
193	0x3ce8d322	0.028420988
194	0x3d24beb4	0.04022093
195	0x3cc95003	0.024574285
196	0xbce3125a	-0.027718712
197	0x3d21b0f9	0.039475415
198	0x3d097512	0.033558913
199	0x3d905295	0.07047001
200	0xbd509350	-0.05092174
201	0xbdc2f9b7	-0.095202856
202	0x3d361afe	0.044459336
203	0xbd635470	-0.055500448
204	0xbcfb37a2	-0.030666176
205	0x3c17453f	0.009232818
206	0x3d836370	0.064154506
207	0x3d7d422b	0.06183068
208	0x3cc28a1c	0.023747496
209	0xbd84a788	-0.064772666
210	0x3d259bc8	0.040431768
211	0xbd662dc8	-0.056196004
212	0x3c0aa4ea	0.00846217
213	0x3dbeede2	0.09322716
214	0x3cdcb34b	0.026940962
215	0x3e1fa7ce	0.15591356
216	0xbdd81bea	-0.10552199
217	0xbd5ae807	-0.053443935
218	0x3d329210	0.043596327
219	0xbda7316f	-0.081637256
220	0xbda46e71	-0.080288775
221	0x3dc0e6d9	0.09419031
222	0x3d517c23	0.051143777
223	0x3d492497	0.04910716
224	0x3ca26fb8	0.019828662
225	0x3cedfb74	0.029050566
226	0x3d24caaf	0.040232357
227	0x3d126bfc	0.035747513
228	0xbd23fb67	-0.040034678
229	0xbcc7cf09	-0.024390714
230	0x3b86e56b	0.004116704
231	0xbc8a51ce	-0.01688471
232	0x3c92eeb2	0.017936084
233	0xbd315fe0	-0.043304324
234	0xbbab50c9	-0.005228136
235	0x3c2f33db	0.010693516
236	0x3ce52122	0.0279699
237	0xbd24aeea	-0.040205874
238	0x3bfee424	0.0077786613
239	0x3b5aa1aa	0.003336052
240	0xbd0e4290	-0.034731448
241	0x3b7d4c5e	0.0038650255
242	0xbcbe5030	-0.023231596
243	0xbacf693f	-0.0015824212
244	0xbaea519f	-0.0017877108
245	0xbb5a3921	-0.0033298212
246	0x3be6d401	0.007044316
247	0x3ca38bfe	0.019964214
248	0xbd43caa9	-0.047800694
249	0x3a80351c	0.0009781453
250	0x3ce72232	0.028214548
251	0xbcd9ff69	-0.026611047
252	0x3bd64f6d	0.00654023
253	0x3d40c68c	0.04706435
254	0x3d323c49	0.043514524
255	0x3d15ca88	0.036570102

conv1.bias f4 [16]
0	0x3e9a9f86	0.30199832
1	0x3e54589c	0.20736927
2	0x3eaa8a93	0.3330885
3	0x3eb4b5aa	0.3529485
4	0x3e80d2cb	0.25160822
5	0x3e70a203	0.23499303
6	0x3e5ce4f3	0.21571712
7	0x3e67c101	0.22632219
8	0x3e70e5b7	0.2352513
9	0x3e5e0515	0.21681626
10	0x3e65956a	0.22420278
11	0x3e84b9cf	0.2592301
12	0x3e7f0612	0.2490466
13	0x3e82564b	0.2545646
14	0x3e43b03f	0.19110201
15	0x3e2d7e01	0.16942598

convs.0.weight f4 [16, 16]
0	0x3f35f368	0.71074533
1	0xbf1142fd	-0.5674284
2	0x3dc2171b	0.09477063
3	0xbe3c2d29	-0.18376602
4	0xbe21df89	-0.15807928
5	0x3f0d2fc3	0.55151004
6	0xbd9cb319	-0.07651348
7	0xbf2bf589	-0.6717153
8	0x3f37222e	0.7153653
9	0x3e63d70e	0.22250006
10	0x3f2598b8	0.64686155
11	0xbe7d5c88	-0.24742329
12	0xbf21aeec	-0.63157535
13	0xbd98e172	-0.07464875
14	0x3e643d8c	0.22289103
15	0x3c2e4c2b	0.010638277
16	0xbd2c660a	-0.0420895
17	0x3f5984a4	0.8496802
18	0xbf133973	-0.57509536
19	0x3e39745c	0.18110794
20	0xbec8a8d1	-0.39191297
21	0xbedb045c	-0.42776763
22	0x3ed615b1	0.41813424
23	0x3dc61634	0.09672204
24	0xbf4118da	-0.75428545
25	0x3dbb1083	0.09134009
26	0x3e8665e3	0.26249608
27	0x3f324752	0.69640076
28	0x3eb9d40d	0.36294594
29	0x3ec93f5c	0.39306152
30	0x3eca23bb	0.39480385
31	0x3f021a66	0.5082153
32	0x3f13a5b6	0.5767473
33	0x3d8a19b2	0.06743182
34	0x3f2907bc	0.66027427
35	0xbf2659da	-0.6498085
36	0x3e16eff1	0.14739968
37	0x3ec718f2	0.3888622
38	0xbcb5895a	-0.02216022
39	0xbf1f31fd	-0.6218565
40	0x3f1db3a3	0.6160223
41	0x3cbc9c56	0.023023766
42	0x3f112f9b	0.56713265
43	0x3ec769d6	0.38947934
44	0xbf422e7f	-0.758522
45	0x3ea36cee	0.31919044
46	0x3d28424e	0.041078858
47	0x3f2da7de	0.6783427
48	0xbf31923d	-0.69363767
49	0x3f533ebb	0.82517594
50	0xbe913f65	-0.2836868
51	0xbf55e0b2	-0.8354598
52	0x3eaa5abf	0.3327236
53	0xbd0f3a16	-0.034967504
54	0x3f4e7925	0.806536
55	0x3d018f7e	0.031630985
56	0xbf038960	-0.5138149
57	0x3f286498	0.65778494
58	0x3e5c8abd	0.215373
59	0xbecace48	-0.39610505
60	0x3ec8c7b1	0.39214852
61	0xbde6395b	-0.112414084
62	0x3d4f2ebf	0.05058169
63	0x3f1a8add	0.6036814
64	0xbef53087	-0.47888586
65	0xbeaed2a1	-0.34145072
66	0xbdcad0f4	-0.09903136
67	0xbe0e95b4	-0.13924295
68	0x3ebe91a9	0.37220505
69	0x3e83ff9e	0.25780958
70	0x3eb4e483	0.3533059
71	0x3f3b951b	0.7327439
72	0x3f032a56	0.51236475
73	0xbf05eb0c	-0.5231178
74	0x3e579641	0.21053411
75	0x3ed5e120	0.4177332
76	0x3f2a96e4	0.6663649
77	0x3f00f56b	0.5037448
78	0x3f3f06c5	0.74619704
79	0xbf128251	-0.572301
80	0xbd9b297a	-0.075762704
81	0xbecc34a0	-0.398839
82	0x3f2e1ad3	0.6800968
83	0x3de2e4c5	0.110787906
84	0xbf003e70	-0.5009527
85	0x3e8c752e	0.2743315
86	0xbec5edc1	-0.38657954
87	0x3e173829	0.14767517
88	0xbe8cb5e7	-0.2748253
89	0xbf11f420	-0.5701313
90	0x3f3d33f3	0.73907393
91	0xbec59eee	-0.38597816
92	0x3f151b22	0.58244526
93	0xbebb69d2	-0.36604172
94	0x3f208cea	0.6271502
95	0xbdae39a6	-0.08507089
96	0x3ef0d508	0.4703753
97	0x3eaa4128	0.33252835
98	0x3d09fe2f	0.033689674
99	0x3eee3fab	0.4653295
100	0xbf0751a6	-0.5285896
101	0x3e956a21	0.29182532
102	0xbd530a67	-0.051523592
103	0x3eaca450	0.3371911
104	0xbd0dbecc	-0.034605786
105	0x3f1af879	0.6053539
106	0x3ef3a7a2	0.4758883
107	0xbf277a08	-0.6542058
108	0x3ee54ec8	0.44786668
109	0xbf1362c3	-0.57572573
110	0x3ea0a675	0.31376997
111	0x3f0afb80	0.5429001
112	0xbe2c8884	-0.16848952
113	0xbdcca3cf	-0.099921815
114	0x3f145e18	0.57956076
115	0xbeac5d4b	-0.33664927
116	0xbde9be2a	-0.11413224
117	0x3f3b581f	0.7318134
118	0xbf1a2116	-0.60206735
119	0x3f2109dd	0.62905675
120	0xbe8d9c9e	-0.27658552
121	0xbea9d519	-0.33170393
122	0x3efac019	0.48974684
123	0xbef8e5d2	-0.4861284
124	0x3ef4988e	0.4777264
125	0xbe3921d6	-0.18079314
126	0x3d594940	0.053048372
127	0x3ed55d1a	0.41672593
128	0x3f02b109	0.51051384
129	0xbd98c2c8	-0.074590266
130	0xbf0d1688	-0.55112505
131	0xbe957243	-0.29188737
132	0x3d7e4c6e	0.062084608
133	0xbf2216e5	-0.63316184
134	0x3ef73e8c	0.48289907
135	0xbece055d	-0.40238467
136	0x3f0fc9d7	0.5616736
137	0x3f2cc9f2	0.67495644
138	0x3ef163f6	0.47146577
139	0x3e49527d	0.19660373
140	0xbbca2583	-0.0061690225
141	0x3e3ca77c	0.18423265
142	0x3f29b91c	0.6629808
143	0xbf26b919	-0.65126187
144	0xbf06b4a1	-0.5261937
145	0xbe6eae16	-0.23308596
146	0xbef11593	-0.47086772
147	0x3f4963ac	0.7866771
148	0x3f1a9979	0.6039043
149	0xbf1b774a	-0.60728896
150	0x3e0a19b6	0.1348637
151	0x3e63fac0	0.22263622
152	0x3f501cce	0.8129395
153	0x3e8f3acc	0.27974546
154	0xbeceb2b4	-0.40370715
155	0xbd056667	-0.03256836
156	0x3f04d879	0.5189281
157	0x3d60a4f5	0.054844815
158	0x3eb7d82c	0.35907114
159	0xbf1c90d3	-0.61158484
160	0x3e17f525	0.14839609
161	0xbc1061f5	-0.008812417
162	0x3f28ce3f	0.65939707
163	0x3b35762e	0.0027688849
164	0x3e614e84	0.22002608
165	0x3e153a4a	0.14573017
166	0x3eaea954	0.34113562
167	0x3e590cca	0.21196285
168	0xbf26a7ad	-0.650996
169	0xbf209f4a	-0.62743056
170	0xbf2ee390	-0.6831598
171	0x3f2b90d4	0.67017865
172	0x3eff2a3c	0.4983691
173	0x3f0e9f7a	0.5571209
174	0x3e031081	0.12799264
175	0x3f0921b8	0.53567076
176	0x3f15e3a1	0.5855046
177	0x3df712a4	0.12064102
178	0x3eac4aea	0.33650905
179	0x3e9eead9	0.3103855
180	0x3ea87e17	0.329087
181	0xbf3a5873	-0.7279121
182	0x3ee7efae	0.4530005
183	0xbf49f485	-0.7888873
184	0x3f2f9f12	0.686021
185	0x3db317b2	0.08744754
186	0xbf2e06b6	-0.6797899
187	0x3eeb4a1d	0.4595498
188	0xbf2e9e1f	-0.68210024
189	0x3f3293a1	0.69756514
190	0x3e8564ca	0.26053458
191	0xbf3a8a1b	-0.7286698
192	0xbdca0ea1	-0.098660715
193	0x3f448a90	0.7677393
194	0xbea9a49b	-0.33133397
195	0x3f006f47	0.50169796
196	0x3f243a5c	0.6415155
197	0xbebcd05e	-0.36877722
198	0x3f1ef99c	0.62099624
199	0xbce1c148	-0.027557984
200	0x3ed199ac	0.40937555
201	0x3f539a39	0.826572
202	0x3c9beaac	0.019032799
203	0xbe32b6cc	-0.17452544
204	0xbf3e458a	-0.7432486
205	0xbe28b0e4	-0.16473728
206	0xbf145d97	-0.57955307
207	0x3eba9fc3	0.36450014
208	0x3e6bdaab	0.23032634
209	0xbeb73ca1	-0.35788444
210	0x3eb8237a	0.35964566
211	0x3f42d546	0.7610668
212	0x3e86adfe	0.2630462
213	0x3f012e42	0.5046121
214	0xbe5eb0da	-0.21747151
215	0x3f6b7301	0.9197236
216	0x3f423bb0	0.75872326
217	0xbd64eb23	-0.055888306
218	0xbea4a75f	-0.32158944
219	0xbdb71724	-0.089399606
220	0x3dd3b902	0.10338022
221	0xbe8904cd	-0.26761475
222	0xbf2d8439	-0.6777988
223	0x3f094581	0.5362168
224	0x3ede85e3	0.43461522
225	0x3f3b1a27	0.7308678
226	0x3e2afb6a	0.1669747
227	0x3ef753d8	0.48306155
228	0xbf079792	-0.5296565
229	0x3ebaa0bc	0.36450756
230	0xbe80f0a8	-0.25183606
231	0x3f0582bd	0.52152616
232	0xbeb92c20	-0.36166477
233	0x3ea6e79e	0.32598585
234	0xbd31a8cc	-0.043373868
235	0x3db8a58a	0.09015949
236	0x3e93576a	0.2877763
237	0xbea19f07	-0.3156664
238	0xbf12ee32	-0.5739471
239	0x3f440675	0.7657235
240	0x3f2a23dd	0.66460973
241	0x3f272ac5	0.65299636
242	0xbbab8c67	-0.005235243
243	0x3f202b57	0.6256613
244	0xbf4ebc5b	-0.8075616
245	0x3f01777a	0.5057293
246	0xbe7c7fdd	-0.24658151
247	0x3ea80d88	0.32822824
248	0xbf0c09e7	-0.5470261
249	0x3c55e4eb	0.013055067
250	0x3e20cd22	0.15703252
251	0x3eb96f38	0.36217666
252	0x3f071cfe	0.52778614
253	0xbede7b56	-0.43453473
254	0xbf08f9c0	-0.5350609
255	0x3e3a2d5b	0.18181364

convs.0.bias f4 [16]
0	0x3d3a331f	0.04545891
1	0xbe010505	-0.12599571
2	0x3e6ded74	0.23235112
3	0xbce6953c	-0.028147332
4	0xbb280e9e	-0.0025643478
5	0x3e212806	0.15737924
6	0x3db8c379	0.090216585
7	0x3e0cb644	0.13741404
8	0x3de8e2d1	0.11371387
9	0x3c8104e3	0.0157494
10	0x3e665504	0.22493368
11	0x3e1ac437	0.15113913
12	0x3e3a56cd	0.18197174
13	0x3e2d52d8	0.16926134
14	0x3e66d9e7	0.2254406
15	0x3e209458	0.15681589

ffn.0.weight f4 [7, 16]
0	0xbf1d8ebd	-0.61545926
1	0xbf11546b	-0.56769437
2	0x3e4dde4e	0.20104334
3	0xbea4875f	-0.3213453
4	0x3f03a9ae	0.51430786
5	0xbef47b97	-0.47750542
6	0x3eed1afd	0.46309653
7	0xbef8abbd	-0.48568526
8	0x3ee7dbac	0.45284784
9	0xbe8271b6	-0.2547738
10	0xbf1a6285	-0.6030658
11	0x3e85b4d8	0.26114535
12	0xbede93bb	-0.43472084
13	0x3ebc7b46	0.368128
14	0x3e8404f1	0.2578502
15	0xbf1694fa	-0.5882107
16	0xbf0858ec	-0.53260684
17	0xbe6e1dbf	-0.23253535
18	0xbed9f96f	-0.42573115
19	0xbef4d120	-0.478158
20	0xbed7749e	-0.4208116
21	0xbeb3aa0c	-0.35090673
22	0x3ec8b068	0.39197087
23	0x3e1d1e80	0.15343666
24	0xbed8f075	-0.42370954
25	0xbe53dfe5	-0.20690878
26	0x3f1ce690	0.6128931
27	0xbf0e7656	-0.55649316
28	0x3f1390bb	0.57642716
29	0xbea11feb	-0.31469664
30	0x3f09ddd8	0.5385413
31	0xbead4f1d	-0.3384942
32	0xbd10cd1c	-0.035351858
33	0xbe56b6c9	-0.20968165
34	0x3f255969	0.64589554
35	0xbddd097e	-0.10792826
36	0xbe2cecbb	-0.1688718
37	0x3f20afdc	0.6276834
38	0xbf22a9ad	-0.63540155
39	0x3f140107	0.5781407
40	0xbef07eee	-0.4697184
41	0xbf18d1f1	-0.59695345
42	0x3ecccb16	0.39998692
43	0xbec349c4	-0.38142216
44	0x3e706135	0.23474582
45	0xbed25e2e	-0.41087478
46	0xbeb1fc83	-0.34762964
47	0x3f0b0369	0.5430208
48	0x3dd73f3a	0.105101064
49	0x3f04b3b5	0.5183671
50	0xbef5a88b	-0.4798015
51	0xbe9b6fa0	-0.303586
52	0xbe839588	-0.2570002
53	0xbdddc3ff	-0.10828399
54	0x3ea03511	0.31290486
55	0xbf22d667	-0.636084
56	0xbed8d7db	-0.42352185
57	0x3f05bde8	0.522429
58	0x3f035a59	0.51309735
59	0xbef882d5	-0.48537317
60	0xbf0b5ba1	-0.5443669
61	0xbef255eb	-0.47331175
62	0xbe854667	-0.26030275
63	0x3ef12f73	0.47106513
64	0x3efa6a00	0.48908997
65	0xbeea15a0	-0.45719624
66	0x3d4273de	0.04747378
67	0x3f0aac1c	0.5416887
68	0xbf0c4f83	-0.54808825
69	0xbe01e388	-0.12684453
70	0xbe8971ee	-0.26844734
71	0xbed8591c	-0.42255485
72	0x3e9bae52	0.30406433
73	0x3e0d0e25	0.13774927
74	0x3e3a1004	0.18170172
75	0xbeb0da4e	-0.34541553
76	0xbebf5780	-0.37371445
77	0xbf245b8b	-0.64202183
78	0xbdb6cbd6	-0.08925597
79	0xbe4aacd2	-0.19792488
80	0x3f0d6a1b	0.5524003
81	0x3e44f16c	0.1923272
82	0x3e307958	0.17233789
83	0xbe2d97fb	-0.16952507
84	0xbf74f5bb	-0.95687455
85	0xbec0aee5	-0.37633434
86	0x3e9cf07a	0.3065222
87	0xbf44706a	-0.7673403
88	0xbf426dd3	-0.7594883
89	0xbf4e6df9	-0.80636555
90	0xbeca67df	-0.39532372
91	0x3f2b9288	0.67020464
92	0xbd5b2da1	-0.053510312
93	0x3e6da087	0.23205768
94	0x3e2b0673	0.16701679
95	0xbbc13377	-0.0058960277
96	0xbeeb8e30	-0.46006918
97	0x3edccaa1	0.43123344
98	0xbf07ab66	-0.5299591
99	0x3f24c368	0.64360666
100	0xbcb0c103	-0.02157641
101	0xbf04fe2a	-0.51950324
102	0x3ea9990e	0.33124584
103	0x3f4acea3	0.7922155
104	0xbf090dd2	-0.53536713
105	0x3d2ab231	0.041673843
106	0xbf1d7ac3	-0.61515445
107	0x3e422603	0.18959813
108	0x3f26dd44	0.65181375
109	0xbf048ca9	-0.5177713
110	0xbf22dba4	-0.63616395
111	0x3e776378	0.24159038

ffn.0.bias f4 [7]
0	0x3d6ab5e1	0.05730236
1	0x3e7d6d51	0.24748732
2	0xbc4403d8	-0.011963807
3	0xbe562d6f	-0.20915769
4	0x3dd9263e	0.10602997
5	0x3c45ded6	0.012077054
6	0xbea20d23	-0.31650648
