checkpoints/cora/0.1/GCN_2l/seed/3/GCN_2l_best.ckpt (torch, 95851 bytes, 6 tensors)

conv1.weight f4 [1433, 16]
000000 b2 8b 2b 3e 4c 89 87 3d 38 9a 35 3e 31 8c ef bd
       0.16752508 0.06617984 0.17734611 -0.11696661
000010 e6 33 32 be d1 dc 5e 3d dc 69 ef bd ac d4 41 bd
       -0.1740261 0.054409806 -0.11690113 -0.04732196
000020 b1 80 57 3e b4 39 0b 3e 37 5c 23 3d 36 56 4b 3c
       0.21045186 0.13596231 0.039882865 0.012410691
000030 9a 8b 04 3e 89 9d fc bd 31 ff ce bd 28 43 13 bd
       0.12943879 -0.12334735 -0.10107268 -0.035952717
000040 20 18 e3 bd a3 49 b8 bc 54 f4 8e 3e 17 1b 7c 3e
       -0.11088586 -0.02249605 0.27920783 0.24619709
000050 82 aa 36 3e e9 a0 23 bc 95 10 60 3e d2 bb 28 3c
       0.17838481 -0.009987094 0.21881326 0.010298686
000060 4c 59 98 bd 97 48 29 be 2a b0 20 3e 07 fa 11 be
       -0.07438907 -0.16531597 0.15692201 -0.14255534
000070 5b eb 30 3e 14 4f 25 3e 19 27 13 3e 71 a5 ca 3c
       0.17277281 0.16143447 0.14370383 0.024737092
000080 b1 fd cc 3d e3 25 37 3e 55 c0 5b be ae 28 d9 bc
       0.10009325 0.17885546 -0.21460088 -0.026508655
000090 1f 69 d6 3d 7a 4d 1f 3e 0f 2c 49 3d d1 0e 7b 3e
       0.10469269 0.15556899 0.049114283 0.24517371
0000a0 8b 73 34 3e ac f1 53 3e f3 21 7d 3d 77 91 2a 3e
       0.17622201 0.20697659 0.061799955 0.16657053
0000b0 b2 ea 18 3d 19 cd 97 3d 5c 38 33 3d 49 e0 47 3e
       0.037333198 0.07412166 0.04375492 0.19519152
0000c0 c1 7a 2b be 05 25 3e bd 92 b6 83 3e 67 e0 32 3e
       -0.16746046 -0.046422023 0.25725228 0.17468415
0000d0 c9 fe 44 3e 99 43 0a be 5d 0c 73 3e 00 8b 29 bc
       0.19237818 -0.13502349 0.23735185 -0.010348082
0000e0 ba ae 72 be 42 aa 50 bd 20 9c 90 3d b1 8d 12 3e
       -0.23699465 -0.05094362 0.070610285 0.14311863
0000f0 a4 75 f1 3d 72 72 4f 3e b9 84 9a 3d a5 b9 20 be
       0.11790016 0.20258501 0.07544846 -0.15695818
000100 fa 55 9b be c4 86 ab bd e6 dd 9f 3d 6d 74 11 be
       -0.30339032 -0.08375314 0.07805996 -0.14204569
000110 23 eb 95 bd 1d 6f 8c 3e 36 63 47 be 44 f4 e6 bc
       -0.073202394 0.27428523 -0.1947144 -0.028192647
000120 cb 8c 59 3e 98 0f 0c bd 0a 12 51 bd b1 91 58 be
       0.21245115 -0.03419456 -0.051042594 -0.21149327
000130 97 a7 6a 3e c5 91 8c 3e 6b 41 22 bd b1 ea 8c 3e
       0.22915493 0.27454963 -0.03961317 0.27522805
000140 eb c9 1b 3e 4b 1e 27 bc 1a 13 c6 3d b0 f2 d8 bc
       0.15213744 -0.0102000935 0.09671612 -0.02648291
000150 56 cf 4e bd 7b a1 9f bc bc 59 2d 3d 9a 09 a9 bd
       -0.0504907 -0.01948618 0.042321905 -0.082537845
000160 7f f9 94 bc e8 c3 f0 3d e7 62 83 bc 3c 81 b0 bb
       -0.018185375 0.11756116 -0.016038371 -0.0053864997
000170 b1 ff d0 3d 13 23 cc bd b6 ba 8d bd 5a e7 84 bd
       0.10205019 -0.099676274 -0.06920378 -0.06489439
000180 a7 38 07 3e 9c 46 4c 3e df b0 7b be 59 92 81 be
       0.13205205 0.1994881 -0.2457919 -0.25306967
000190 73 c9 f7 3d da c4 0f 3c 7e 4b 71 3e bc 23 5d 3e
       0.1209897 0.00877496 0.23563954 0.21595663
0001a0 46 f9 c6 bd ca 93 68 3e 7b a7 76 be 02 1f 67 3e
       -0.09715514 0.22712627 -0.24087326 0.22570422
0001b0 68 06 bb 3d f0 8e 41 be 8f 46 4d be 79 c0 80 3e
       0.09132081 -0.18902183 -0.20046447 0.25146845
0001c0 9c e9 5f be b6 74 24 be 18 0d 42 3e b7 a0 1b 3e
       -0.21866459 -0.16060147 0.18950307 0.15198027
0001d0 06 5a db 3d f5 fa 99 bd da 7a 48 3d b1 e4 02 be
       0.1071053 -0.075185694 0.048945285 -0.12782551
0001e0 f1 99 aa bd e0 f8 69 be 3c ba d8 3d a9 32 9e bd
       -0.08330143 -0.22848845 0.105823964 -0.077245064
0001f0 94 8d cc 3c 55 01 2d 3e a8 30 35 3e b4 36 ec bd
       0.024969853 0.1689504 0.17694342 -0.11533871
000200 26 cf ad 3c 87 11 3b 3d c6 00 6f 3e 07 87 a2 3d
       0.02121694 0.045671012 0.23340139 0.07935911
000210 47 24 0d 3e 71 de 23 3e 80 ab fa bd 5e ba 90 3d
       0.1378337 0.16002823 -0.12239742 0.07066797
000220 0c a9 a0 3d 6d 69 d4 3d b3 cf ed 3d 72 d3 92 bd
       0.07844743 0.10371671 0.11611881 -0.07169236
000230 e0 b9 4e 3e 33 10 58 3e 06 4b b3 3d b0 56 c6 3d
       0.20188093 0.2109993 0.08754544 0.09684503
000240 36 f7 36 3d ca f2 9c 3d 85 6d 14 be 64 11 f8 3c
       0.044669352 0.07663496 -0.14494903 0.03028173
000250 f3 ac ed 3c 36 95 24 3d e6 75 ab 3b 73 f0 fd 3d
       0.029013133 0.04018136 0.0052325604 0.12399378
000260 01 69 3a 3c 5a d2 16 3d 6e a7 c2 3c ca 4a 9b 3d
       0.011377574 0.0368217 0.023761477 0.07582624
000270 5c 72 77 bd da 77 4d bc 5d 2a 38 3d 8a fa 48 3d
       -0.060411796 -0.012540782 0.044962276 0.049067058
000280 90 13 c3 bd 36 e2 d9 bc 61 e7 72 3e c0 11 87 3e
       -0.095252156 -0.026597124 0.23721077 0.2638073
000290 12 24 23 3e 71 90 c7 bd 5a 23 44 3e e2 f8 b7 3c
       0.15931728 -0.09744347 0.1915411 0.022457544
0002a0 88 87 12 be 94 cd 1d be 93 eb 49 3e fe 75 e5 bd
       -0.14309514 -0.15410453 0.1971877 -0.11204146
0002b0 f0 e2 58 bb 14 01 55 3e 35 8b 4f 3e 75 2e eb bd
       -0.003309425 0.20801193 0.20267947 -0.1148347
0002c0 3a 6f 0e 3e ef d5 2d 3d 26 09 8e bd 91 17 1c be
       0.13909617 0.04244035 -0.06935339 -0.15243365
0002d0 68 82 be bd 5a 0b bd 3d 5b 12 44 bd e3 6d af 3b
       -0.09302217 0.09230681 -0.047869068 0.0053536757
0002e0 80 58 21 3e 2c 95 e3 3d f9 3b 90 bd f8 2b c8 3d
       0.15756416 0.11112437 -0.07042689 0.097740114
0002f0 2a 70 ef 3c ca 66 a1 bd 1a 06 5a bd 53 f5 a8 3d
       0.029228289 -0.078809336 -0.053228475 0.08249917
000300 34 01 4d 3e ca f2 4b 3e 17 82 bc 3d f6 68 60 bb
       0.2001999 0.19916835 0.092045 -0.003424225
000310 e1 e2 a3 bc 7f 82 62 3d 07 70 b8 3d d2 42 1a 3e
       -0.020005645 0.055300232 0.090057425 0.15064552
000320 2c 97 01 3e ec 73 b1 3d 45 df 88 3e f9 1c 00 3e
       0.12655324 0.086646885 0.2673284 0.12511052
000330 4a 51 39 bd 6c d6 8f bd e8 d7 83 3e 60 4a a3 bd
       -0.04524354 -0.070233196 0.2575066 -0.0797317
000340 05 bd 31 be 74 64 97 3c 65 5d 3d 3e cf 98 3b 3e
       -0.17357261 0.018480517 0.18492658 0.1832001
000350 e8 4d 69 3e 1a 00 0c be a7 09 06 3e d0 af db 3d
       0.22783625 -0.13671914 0.1308962 0.10726893
000360 83 57 46 be 45 23 6e be 50 18 6a 3e 00 65 00 be
       -0.1936932 -0.23255642 0.22860837 -0.12538528
000370 73 09 2d be 6c 01 1c 3e 33 12 5a 3e e7 a6 13 be
       -0.16898136 0.15234917 0.21296005 -0.14419137
000380 c0 50 65 3e b6 52 af 3c 99 24 2d 3e 8a 99 e5 bd
       0.22394085 0.021401744 0.16908492 -0.11210926
000390 8a df 1b be 21 4a 9c 3c 80 ab 43 bd 39 90 fa bd
       -0.15221992 0.019078316 -0.047770977 -0.122345395
0003a0 05 60 62 3e 46 cd 1d bd 0f e8 52 3e b8 10 19 bb
       0.22106941 -0.038525842 0.20596336 -0.0023355912
0003b0 9a 4a 75 bd 31 fa 19 be d7 ab 57 3d 5e d9 9b bd
       -0.0598856 -0.15036847 0.052654114 -0.07609819
0003c0 69 04 57 bd ce f0 63 3e e3 f6 55 be 6b c1 13 3e
       -0.05249444 0.22259828 -0.20894961 0.14429252
0003d0 22 87 3a 3e 72 80 ff 3d c8 ef 58 bd 21 cb 8a 3e
       0.18215612 0.12475671 -0.05296305 0.271081
0003e0 1c 4f f3 bc 66 a3 eb 3d 84 2e ca 3d ac bf 13 3e
       -0.029700808 0.11505775 0.098721534 0.14428586
0003f0 9f a9 d4 bd 36 c0 00 3e 3c 86 ac 3d f6 86 89 3d
       -0.10383915 0.12573323 0.08424041 0.06715195

conv1.bias f4 [16]
000000 5a 11 55 3e a5 63 62 3e 75 d6 71 3e ce 0f 5f 3e
       0.208074 0.22108324 0.23616965 0.21783373
000010 a0 ff 52 3e 7a 47 70 3e b0 94 3c 3e 71 8f 65 3e
       0.20605326 0.23464766 0.18416095 0.22418
000020 e3 36 3e 3e 59 18 56 3e d9 dd 5c 3e a0 2a d7 3d
       0.18575625 0.20907725 0.21569003 0.10506177
000030 2d f7 59 3e bc 17 5a 3e 0c f2 3f 3e c0 3a 51 3e
       0.21285696 0.21298116 0.18744677 0.20432568

convs.0.weight f4 [16, 16]
000000 0e d7 51 3a ac ff 07 bf ca 05 29 3f 9c 93 12 bf
       0.0008004763 -0.531245 0.6602446 -0.57256484
000010 0e eb a8 be 4f 01 0b 3f 7c b7 0c bf 4a b7 62 be
       -0.32991832 0.5429887 -0.54967475 -0.22140232
000020 45 96 c6 3e d3 06 f7 3e d0 af 14 39 91 2e 94 3e
       0.38786522 0.48247394 0.00014179875 0.28941777
000030 eb 67 ab 3e 29 21 5f 3d f7 f0 38 3f 7f 6c e0 3e
       0.3347772 0.054474983 0.72242683 0.43832776
000040 00 ef ab 3d 24 ed 78 3e 3b 1c 17 3f 35 62 7c 3e
       0.08395195 0.24309212 0.5902745 0.24646838
000050 2f ff a3 be e5 58 8b 3e 98 c2 f7 3e 06 80 40 bb
       -0.32030627 0.2721626 0.4839065 -0.0029373183
000060 62 0f 1c 3f c8 67 1b 3f 8d d2 b9 bb 4a 4a 85 3e
       0.6096097 0.6070523 -0.0056708516 0.2603324
000070 61 f0 36 be bc 6c 33 bd 39 8f dc 3d c3 a9 95 3e
       -0.17865135 -0.04380487 0.10769505 0.2923108
000080 68 6c d8 bd 02 b5 4b be 13 81 2f be ce 45 e3 3e
       -0.10567552 -0.19893268 -0.17139082 0.44389194
000090 91 2c ec 3e a2 96 89 bd 3f 7d cc be 32 fa 8b 3e
       0.4612775 -0.06718184 -0.39939305 0.2733932
0000a0 fc 8a db be 33 7e 90 3e e3 47 9a bd 70 f5 2a bf
       -0.42879474 0.28221282 -0.075332426 -0.6678076
0000b0 1d b9 67 3d 4d bc 21 bd fc 26 23 3f 05 6a 85 3d
       0.056573022 -0.03948622 0.6373136 0.06514362
0000c0 d0 fc 5d bb 27 ca 01 bf 83 60 c4 be f3 39 fc 3e
       -0.0033872612 -0.50699085 -0.38354883 0.49262962
0000d0 f4 77 aa 3c ea 36 92 3c 55 bf 0f 3f e4 16 10 3f
       0.020809151 0.01784845 0.56151325 0.5628493
0000e0 e7 22 ea 3c 88 6d ef be d1 bc 06 be fa 19 4a be
       0.028581096 -0.46763253 -0.13157965 -0.19736472
0000f0 8c ec d7 be 18 49 3a be b7 79 17 3e 1d 7d a0 3c
       -0.42172658 -0.18191946 0.14792524 0.019590909
000100 a9 a0 71 3d cd c6 77 bc 59 09 aa 3e 82 26 e4 3e
       0.058991108 -0.015123081 0.33210257 0.4456063
000110 2a 1c bc bd a1 b5 e3 be f9 b7 35 3b 42 45 19 3f
       -0.09185059 -0.4447451 0.0027728064 0.59871304
000120 ad 76 25 3e 6c ad bb be 94 ed f4 39 5d 74 0b 3f
       0.16158552 -0.36655748 0.00046716316 0.5447443
000130 51 78 33 be a0 f8 e9 3e b9 28 94 bd eb b1 e0 be
       -0.17526366 0.45697498 -0.0723433 -0.4388574
000140 30 b4 9f 3c ef 8b ae 3e 47 aa 94 3d 26 05 2a 3e
       0.0194951 0.34091136 0.0725904 0.16603526
000150 a5 c0 e8 3e d7 90 2d 3e 1a 93 89 3e 4a b7 9e be
       0.45459476 0.16949783 0.26870042 -0.30999213
000160 25 96 95 3e c0 fa fd bc b8 a4 97 bd ea e7 ab 3e
       0.29216114 -0.031003356 -0.074044645 0.33575374
000170 22 41 4a 3e 89 33 2f bd 44 d5 ef be 38 22 f8 3e
       0.19751409 -0.042773757 -0.46842396 0.48463607
000180 6f 51 40 3e 63 74 8a be d6 48 1a 3e 89 ab 12 bb
       0.18781064 -0.2704192 0.15066847 -0.0022380075
000190 4b 22 cf be 1d c7 50 be e2 a9 94 be 38 78 ab 3e
       -0.4045585 -0.20388456 -0.2903586 0.33490157
0001a0 10 31 02 3f 73 70 7f 3e c6 c8 bf bd 22 a0 8a bd
       0.50856113 0.2494524 -0.09364466 -0.06768824
0001b0 38 21 1e 3f ce b6 69 bd 94 46 21 3f c0 e3 fc be
       0.6176944 -0.0570591 0.6299832 -0.4939251
0001c0 eb e7 04 be b7 bb 49 3e fc d1 a9 3e 17 28 27 bd
       -0.12979095 0.19700514 0.33168018 -0.040809717
0001d0 ba 25 1c bf 44 c5 1a 3a f8 c0 1e 3f fc bc eb 3e
       -0.60995066 0.00059040287 0.62013197 0.4604262
0001e0 58 95 bf 3e 96 b7 ed bd 76 84 95 bd 3c a0 21 3f
       0.37418628 -0.11607282 -0.073006555 0.63135123
0001f0 56 63 06 3f 83 7a 0b 3f bc db 5f be fe c3 b4 3e
       0.52495325 0.54483813 -0.21861166 0.3530578
000200 3e 7b 11 be 2d 5d 0c 3f 03 fc 8f bd b2 04 e2 be
       -0.1420717 0.54829675 -0.07030489 -0.44144207
000210 61 2b 16 3f 81 77 1b 3f c4 c9 30 be c5 42 be be
       0.5865994 0.60729223 -0.17264467 -0.37160316
000220 87 0f 3b 3e b4 1a 67 3e 63 84 99 3a ca 0d 7e be
       0.18267642 0.2256878 0.0011712428 -0.24809948
000230 b7 c2 b6 3e 79 04 c5 3d 0a 82 ff be 59 8c 19 3f
       0.3569543 0.09619994 -0.499039 0.5997978
000240 20 cd ff bd 85 54 70 3e 61 f4 8b 3e 66 44 8f 3c
       -0.12490296 0.23469742 0.27334884 0.01748867
000250 fc 91 d8 bd 00 7f d1 bd 9a b4 58 bb ec e0 fc be
       -0.10574719 -0.102293015 -0.0033066631 -0.49390352
000260 13 1a 34 3e 89 30 a4 3e b9 ae 0e be 23 54 1d 3f
       0.17588072 0.3206828 -0.13933839 0.6145651
000270 db 60 41 3e fe 95 fc bc 22 56 2f 3f 0e 21 fe 3c
       0.18884604 -0.03083324 0.68490803 0.031021621
000280 8c c7 81 ba 2a ee f4 be 59 eb 87 3c c8 a2 02 3f
       -0.0009901389 -0.47837955 0.016591715 0.51029634
000290 48 86 2a be 10 37 1c 3f 34 5d 9a 3e 6a 2c cf 3e
       -0.16652787 0.6102152 0.30149233 0.40463573
0002a0 a1 b2 21 3f cb f8 25 3e 8b 2d b2 3c 87 f3 d2 be
       0.6316319 0.16208188 0.021750232 -0.41201422
0002b0 74 4f 0d 3e b7 2f 81 bd 14 70 4e be b0 8e 17 3f
       0.1379984 -0.06307929 -0.20159942 0.592021
0002c0 50 05 d1 bd 3b f6 06 3f cc 28 d0 3e b4 b6 3c be
       -0.102060914 0.5271947 0.40656126 -0.1842907
0002d0 ef d7 cc be a0 88 f7 3e 4e 40 12 bf 50 08 ed be
       -0.40008494 0.48346424 -0.5712937 -0.46295404
0002e0 1f 5d 05 3f 0d 85 c1 be ce 58 0e 3b 87 03 5b bd
       0.52095217 -0.37796822 0.0021720412 -0.05347016
0002f0 c3 fb c0 be e0 1c bd be 97 5e ff 3e 67 6b b0 be
       -0.3769208 -0.36936092 0.49876854 -0.3445694
000300 b1 f5 c2 bb 77 42 77 3e 74 1b 98 bd cd 1f 7a 3e
       -0.005949699 0.24146448 -0.07427111 0.24426194
000310 e8 14 34 3f bc 98 f2 be 68 b6 9e 3e 1f 60 4a be
       0.703444 -0.47382152 0.3099854 -0.1976323
000320 d9 eb 20 bf 4a 45 f8 3e f0 ce e9 3b 33 64 be 3e
       -0.62859875 0.48490363 0.0071352646 0.3718582
000330 8f 81 5c be 3b df cc be 7b dd b5 3e cc f3 70 bd
       -0.21533798 -0.4001406 0.3552054 -0.058826253
000340 ac 28 02 3b 0a c8 e6 3e 56 8c 0e bf 0c 80 b0 3e
       0.0019860668 0.45074493 -0.55682886 0.34472692
000350 57 0c 12 3f 1f d6 2e 3e 3f 41 e9 3e 34 94 23 3f
       0.5705008 0.17073868 0.4555759 0.63898015
000360 41 8c 18 bf 36 ab 14 bf 33 68 1f 3b 5c 76 a3 3e
       -0.5958901 -0.5807375 0.0024323582 0.3192624
000370 eb 49 0e bf cd 17 e5 3e 3c 85 a2 bd c0 b4 80 3e
       -0.5558154 0.4474472 -0.07935569 0.251379
000380 b0 97 0f be 25 d1 04 3e 4a c1 87 3e 86 c0 cf 3d
       -0.14022708 0.12970407 0.26514655 0.10144143
000390 41 40 c4 3d 20 1e 1c 3f c5 53 a7 3e 05 23 1c 3f
       0.09582568 0.6098347 0.326811 0.60990936
0003a0 63 40 aa 3e 8f 6a 6c be ec 8c e5 3c f8 81 24 bf
       0.33252248 -0.23087524 0.028021298 -0.64260817
0003b0 72 17 d5 3e 92 2d 08 3e 69 cd ab 3e 3b 23 cc 3e
       0.4161945 0.13298634 0.33555153 0.3987063
0003c0 ae 13 d7 bd bb 95 0b 3f 56 5f 14 be 0b 55 41 be
       -0.105018005 0.54525346 -0.14489493 -0.18880098
0003d0 6e 8f 4a 3e 5a 15 94 3d 6f b3 10 3e e7 6f 5a be
       0.19781277 0.07230635 0.14130948 -0.2133175
0003e0 d2 85 a6 3e ad f3 73 be c7 90 8e 3a a9 14 85 3e
       0.32523972 -0.23823424 0.0010876887 0.25992325
0003f0 6f 6e 06 3f b4 bc b7 be 78 72 fd be 23 d5 93 bd
       0.5251226 -0.35886157 -0.49501395 -0.07218387

convs.0.bias f4 [16]
000000 ef 26 2a bd 49 6e 0f 3d 0e 7a 05 3d a4 92 30 3e
       -0.041541036 0.035017285 0.032587104 0.17243439
000010 c1 33 5a 3e 6b ad 14 3e 0f b8 a5 3d 3e fa 13 3e
       0.21308805 0.14519279 0.08091747 0.14450929
000020 ee 62 05 3e af 2d 30 3e 7e ac 09 bd 7f e8 ec 3d
       0.1302602 0.17204927 -0.033611767 0.115677826
000030 d0 9a 03 3e 82 02 e6 3d 88 28 68 3e 71 5a 95 3c
       0.12852025 0.11230947 0.22671711 0.018231602

ffn.0.weight f4 [7, 16]
000000 d1 c5 81 39 71 d2 f4 3e c6 75 99 be c5 e3 18 3b
       0.00024752182 0.47816804 -0.29972667 0.002332912
000010 9e f1 d6 3e ce 16 ee be 38 fe df 3e a5 54 00 bf
       0.41981214 -0.46501774 0.4374864 -0.5012916
000020 64 97 df be 78 2e 4e bd 02 fb 0a 3c ed b6 89 3e
       -0.4367019 -0.050337285 0.0084826965 0.26897374
000030 97 d7 a2 3d 97 7d 3b be af 66 0b bf 10 0c f3 3d
       0.07951277 -0.18309627 -0.5445356 0.11867535
000040 04 d3 6d 3b cf 5a 83 be ad 05 cb 3e 7d 23 ee be
       0.0036289105 -0.2565522 0.39652768 -0.4651145
000050 e4 6e 97 bd ea 53 ce be d2 b6 91 be 7f c0 f1 be
       -0.073941976 -0.40298396 -0.28459793 -0.47217175
000060 be 8b 98 3e ec e0 ba 3e df 2d 36 3b 1d 03 af 3e
       0.29794115 0.36499727 0.0027798337 0.34182063
000070 c7 2a 8c 3e 59 1f 9a be 2e c9 82 3e af ed fe be
       0.27376387 -0.3010204 0.25544113 -0.49790713
000080 d8 6d b2 3b cb 69 c2 be 19 c5 72 3d e4 45 2e 3e
       0.0054452233 -0.3797134 0.05927 0.17018849
000090 cb f0 b7 be e7 fd 91 bd ae fe 98 3e aa 15 c6 3e
       -0.35925898 -0.07128506 0.29881805 0.38688403
0000a0 e3 10 6e 3e 02 af a9 be 9b ec ee bc 2f d4 e0 be
       0.2324863 -0.33141333 -0.029165557 -0.43911883
0000b0 3e 66 56 bc 86 0f 0b 3f dc c0 bf bd ef 60 08 3e
       -0.0130859 0.5432056 -0.09362957 0.13318227
0000c0 5e 15 72 3b fb 53 d6 bd 8e 15 f6 3d e0 8d c9 be
       0.0036939005 -0.10465237 0.1201583 -0.39366055
0000d0 33 fb d7 be e1 90 5b 3e 18 e1 be be a9 6a e1 be
       -0.42183837 0.21441986 -0.37281108 -0.44026688
0000e0 f9 16 a2 3e 4e 20 cc 3e 26 e5 b9 b8 15 ac ce be
       0.31658152 0.39868397 -8.86417e-05 -0.40365663
0000f0 06 0d c2 3e ae ed 93 bd 74 8e 30 be 19 f1 e9 3e
       0.3790056 -0.07223068 -0.17241842 0.45691755
000100 3b c8 13 3b 2e e4 e2 be 60 0a 8d be 34 00 a5 3e
       0.0022549767 -0.44314712 -0.27546978 0.32226717
000110 e0 56 58 3e 07 65 17 bf 16 81 96 3d a8 bc 9f 3e
       0.2112689 -0.5913853 0.0734884 0.3119862
000120 9f 92 fb be 5a d2 ec be 49 d0 e6 3b 1a 35 e9 be
       -0.491353 -0.46254236 0.0070438725 -0.45548326
000130 9c a8 92 be ac ab a8 be 93 26 bf 3e 31 d8 e7 be
       -0.28644264 -0.32943475 0.37334117 -0.45282128
000140 b7 c4 fa 3c e2 9e 81 be 4c 4f 91 3d f9 e7 49 be
       0.03061138 -0.2531653 0.07095203 -0.19717397
000150 1c 70 93 3e bc 23 ba bc e6 1a 2c be 0b c0 01 bf
       0.2879647 -0.022722118 -0.16807136 -0.5068366
000160 27 d8 f3 be 88 16 9a 3e d6 81 de 3b a6 8e 6e 3d
       -0.4762585 0.30095315 0.00679038 0.05824151
000170 e7 52 c8 be 5e 7d 2a be 24 60 cb 3e f7 20 c3 3e
       -0.3912575 -0.16649386 0.39721787 0.38111088
000180 16 bf 0a 3b c3 80 da 3e 74 ef 76 3e f5 bc 80 be
       0.0021171025 0.42676362 0.24114782 -0.25144163
000190 09 3e f4 be 85 ad 36 bc 2c 10 b6 3e dd 15 c1 be
       -0.4770358 -0.011149769 0.35559213 -0.37711993
0001a0 c0 2d 46 3e 4e 8b 04 bf 0f 07 ba 3a 92 62 fa 3e
       0.1935339 -0.5177506 0.0014192777 0.48903328
0001b0 7b 00 33 be 77 7a 1c 3e f1 a2 73 be 8d 0e da 3d
       -0.17480652 0.15281092 -0.23792626 0.106473066

ffn.0.bias f4 [7]
000000 c1 3f ff bd a2 61 cc bd fe e6 21 be c7 5a 50 be
       -0.12463332 -0.099795595 -0.15810773 -0.20347129
000010 d0 10 ec bd 5d b6 75 be d9 b1 3d bd
       -0.11526644 -0.23995347 -0.046312187
